CNN/black_dot.tflite (tflite, 266056 bytes, 9 tensors)

Nvidia_Model/conv2d/Conv2D/ReadVariableOp i1 [24, 5, 5, 3]
0	0xfc	-4
1	0xba	-70
2	0xf6	-10
3	0xcf	-49
4	0x26	38
5	0x58	88
6	0x1b	27
7	0xbd	-67
8	0xf8	-8
9	0x28	40
10	0x9b	-101
11	0x0d	13
12	0x21	33
13	0x94	-108
14	0xfc	-4
15	0x3d	61
16	0x28	40
17	0x63	99
18	0x89	-119
19	0x66	102
20	0xc7	-57
21	0xac	-84
22	0x63	99
23	0x88	-120
24	0x81	-127
25	0x6a	106
26	0x52	82
27	0x02	2
28	0xe2	-30
29	0x1a	26
30	0x14	20
31	0x60	96
32	0xe0	-32
33	0xed	-19
34	0x46	70
35	0xd3	-45
36	0xa0	-96
37	0x25	37
38	0xdf	-33
39	0xf7	-9
40	0xae	-82
41	0x19	25
42	0x5c	92
43	0x05	5
44	0x57	87
45	0xea	-22
46	0x31	49
47	0x18	24
48	0x3c	60
49	0x4f	79
50	0x9d	-99
51	0xc9	-55
52	0xc0	-64
53	0x6e	110
54	0x21	33
55	0xea	-22
56	0xdb	-37
57	0xa2	-94
58	0x6a	106
59	0x56	86
60	0x14	20
61	0x6a	106
62	0x12	18
63	0x2e	46
64	0x3a	58
65	0xbf	-65
66	0x87	-121
67	0xb4	-76
68	0xf8	-8
69	0xcf	-49
70	0x5e	94
71	0x3e	62
72	0x10	16
73	0xf2	-14
74	0x3e	62
75	0x24	36
76	0x93	-109
77	0x14	20
78	0xb2	-78
79	0xd1	-47
80	0x9a	-102
81	0xe9	-23
82	0x4a	74
83	0xb1	-79
84	0x75	117
85	0x71	113
86	0xfb	-5
87	0xe4	-28
88	0xd0	-48
89	0x09	9
90	0xd2	-46
91	0x73	115
92	0xa6	-90
93	0xef	-17
94	0xaf	-81
95	0xed	-19
96	0xbe	-66
97	0xd2	-46
98	0x5a	90
99	0xa5	-91
100	0x59	89
101	0x5d	93
102	0xd6	-42
103	0x66	102
104	0x13	19
105	0x58	88
106	0xd0	-48
107	0xeb	-21
108	0x13	19
109	0xc8	-56
110	0x3f	63
111	0x57	87
112	0xd4	-44
113	0xa1	-95
114	0xfe	-2
115	0x10	16
116	0x3f	63
117	0x1e	30
118	0x09	9
119	0xb9	-71
120	0xa3	-93
121	0xcb	-53
122	0x0e	14
123	0xa2	-94
124	0x21	33
125	0x13	19
126	0x96	-106
127	0x19	25
128	0x11	17
129	0x59	89
130	0x40	64
131	0x9f	-97
132	0x1e	30
133	0x2c	44
134	0x3b	59
135	0x10	16
136	0x8e	-114
137	0x50	80
138	0xa6	-90
139	0x81	-127
140	0x49	73
141	0x40	64
142	0xf2	-14
143	0x46	70
144	0x7c	124
145	0x62	98
146	0xff	-1
147	0x28	40
148	0x37	55
149	0x32	50
150	0x36	54
151	0xf4	-12
152	0x81	-127
153	0x1c	28
154	0x69	105
155	0x70	112
156	0xe7	-25
157	0x67	103
158	0x28	40
159	0xce	-50
160	0x43	67
161	0x27	39
162	0x69	105
163	0xc4	-60
164	0x42	66
165	0x43	67
166	0xa2	-94
167	0x02	2
168	0x83	-125
169	0x19	25
170	0x07	7
171	0x6a	106
172	0xb8	-72
173	0x83	-125
174	0x15	21
175	0xbf	-65
176	0x28	40
177	0xe1	-31
178	0x1e	30
179	0x8f	-113
180	0x1c	28
181	0x88	-120
182	0xb7	-73
183	0x3e	62
184	0x6b	107
185	0xe4	-28
186	0x62	98
187	0xe2	-30
188	0x07	7
189	0x89	-119
190	0x35	53
191	0xcc	-52
192	0x27	39
193	0xd3	-45
194	0x88	-120
195	0x8d	-115
196	0xde	-34
197	0x32	50
198	0xe5	-27
199	0x57	87
200	0xcf	-49
201	0x15	21
202	0xed	-19
203	0xb5	-75
204	0x49	73
205	0x13	19
206	0x4a	74
207	0x6e	110
208	0xbe	-66
209	0x52	82
210	0x43	67
211	0x32	50
212	0x42	66
213	0x26	38
214	0xf3	-13
215	0xac	-84
216	0xf2	-14
217	0x09	9
218	0x34	52
219	0xc1	-63
220	0x81	-127
221	0x8b	-117
222	0x85	-123
223	0xe1	-31
224	0x67	103
225	0x51	81
226	0xf0	-16
227	0xe7	-25
228	0x45	69
229	0x52	82
230	0x1e	30
231	0x1b	27
232	0xd1	-47
233	0x46	70
234	0x2c	44
235	0x84	-124
236	0x88	-120
237	0x44	68
238	0x90	-112
239	0x3d	61
240	0x14	20
241	0x5c	92
242	0x4d	77
243	0x5e	94
244	0x06	6
245	0xdb	-37
246	0xfe	-2
247	0x93	-109
248	0x99	-103
249	0xe4	-28
250	0xfc	-4
251	0x45	69
252	0x24	36
253	0x9e	-98
254	0x14	20
255	0xe1	-31

Nvidia_Model/conv2d_1/Conv2D/ReadVariableOp i1 [36, 5, 5, 24]
0	0xbb	-69
1	0xab	-85
2	0x70	112
3	0xf6	-10
4	0x50	80
5	0x5a	90
6	0xea	-22
7	0xf8	-8
8	0x5f	95
9	0x9b	-101
10	0x8b	-117
11	0xe9	-23
12	0x05	5
13	0x99	-103
14	0xcf	-49
15	0xb0	-80
16	0x46	70
17	0xf1	-15
18	0x44	68
19	0x46	70
20	0x9c	-100
21	0x17	23
22	0x84	-124
23	0x7e	126
24	0x09	9
25	0xc9	-55
26	0xa9	-87
27	0x8c	-116
28	0xfa	-6
29	0x6a	106
30	0x24	36
31	0x64	100
32	0xef	-17
33	0x8a	-118
34	0x66	102
35	0xab	-85
36	0x81	-127
37	0x32	50
38	0x7d	125
39	0x71	113
40	0x36	54
41	0x14	20
42	0x77	119
43	0x35	53
44	0x65	101
45	0xfd	-3
46	0x15	21
47	0x88	-120
48	0x5f	95
49	0xe2	-30
50	0x51	81
51	0x48	72
52	0x7e	126
53	0xb1	-79
54	0xf4	-12
55	0xbf	-65
56	0xe1	-31
57	0xe0	-32
58	0x01	1
59	0x2d	45
60	0xa8	-88
61	0xe6	-26
62	0x83	-125
63	0x00	0
64	0xa9	-87
65	0x3b	59
66	0x0b	11
67	0x0a	10
68	0x71	113
69	0x6e	110
70	0xd7	-41
71	0x78	120
72	0xb8	-72
73	0x34	52
74	0x89	-119
75	0x7d	125
76	0x68	104
77	0x4f	79
78	0x4c	76
79	0x6f	111
80	0x42	66
81	0x07	7
82	0x0d	13
83	0x41	65
84	0x3e	62
85	0x04	4
86	0xb4	-76
87	0xac	-84
88	0xf8	-8
89	0xf9	-7
90	0x5a	90
91	0xe8	-24
92	0x05	5
93	0x5e	94
94	0x58	88
95	0xe1	-31
96	0x06	6
97	0x39	57
98	0xdc	-36
99	0xf8	-8
100	0x60	96
101	0xc2	-62
102	0x88	-120
103	0x13	19
104	0x5d	93
105	0x90	-112
106	0xa2	-94
107	0x7c	124
108	0x2d	45
109	0x76	118
110	0x94	-108
111	0xcd	-51
112	0xfb	-5
113	0x9a	-102
114	0xaa	-86
115	0xa8	-88
116	0xf9	-7
117	0xac	-84
118	0x51	81
119	0x14	20
120	0x59	89
121	0x53	83
122	0xa7	-89
123	0x9c	-100
124	0x4e	78
125	0xce	-50
126	0x93	-109
127	0xcb	-53
128	0x08	8
129	0x17	23
130	0xa5	-91
131	0x43	67
132	0xd4	-44
133	0xd0	-48
134	0x37	55
135	0x5f	95
136	0xed	-19
137	0xf1	-15
138	0x5f	95
139	0x7b	123
140	0x00	0
141	0x75	117
142	0x7c	124
143	0x16	22
144	0xaa	-86
145	0x2b	43
146	0x70	112
147	0x54	84
148	0xb5	-75
149	0x01	1
150	0x57	87
151	0x98	-104
152	0x27	39
153	0xbe	-66
154	0x1d	29
155	0x99	-103
156	0x13	19
157	0xb7	-73
158	0x0f	15
159	0x4f	79
160	0xac	-84
161	0xa3	-93
162	0x0c	12
163	0x39	57
164	0x30	48
165	0xd7	-41
166	0xe0	-32
167	0xe4	-28
168	0x8c	-116
169	0xe0	-32
170	0x1e	30
171	0x1a	26
172	0xf0	-16
173	0xf0	-16
174	0x5f	95
175	0x7d	125
176	0xc6	-58
177	0xbf	-65
178	0x17	23
179	0x5e	94
180	0x3a	58
181	0x4a	74
182	0xab	-85
183	0x39	57
184	0xec	-20
185	0xac	-84
186	0x8a	-118
187	0xa8	-88
188	0xee	-18
189	0xec	-20
190	0x51	81
191	0x50	80
192	0x33	51
193	0x7d	125
194	0xcd	-51
195	0xaa	-86
196	0x0e	14
197	0x0f	15
198	0x83	-125
199	0xdb	-37
200	0x2f	47
201	0x43	67
202	0x5e	94
203	0x2d	45
204	0x83	-125
205	0x5c	92
206	0x8b	-117
207	0x36	54
208	0xb9	-71
209	0x3d	61
210	0x00	0
211	0xe2	-30
212	0x31	49
213	0x6b	107
214	0x6e	110
215	0x53	83
216	0x5c	92
217	0x9b	-101
218	0x4d	77
219	0xc9	-55
220	0xd0	-48
221	0xf7	-9
222	0x1d	29
223	0x6f	111
224	0x8f	-113
225	0x4d	77
226	0xf3	-13
227	0xa4	-92
228	0x39	57
229	0xce	-50
230	0x89	-119
231	0x31	49
232	0x83	-125
233	0xd4	-44
234	0x4f	79
235	0x66	102
236	0x4a	74
237	0x71	113
238	0x82	-126
239	0xc3	-61
240	0x62	98
241	0xcf	-49
242	0x43	67
243	0xcf	-49
244	0x23	35
245	0xe7	-25
246	0x17	23
247	0xad	-83
248	0xe2	-30
249	0xaa	-86
250	0xf7	-9
251	0x62	98
252	0x03	3
253	0xf3	-13
254	0xf0	-16
255	0xef	-17

Nvidia_Model/conv2d_2/Conv2D/ReadVariableOp i1 [48, 5, 5, 36]
0	0x15	21
1	0xe6	-26
2	0x19	25
3	0x07	7
4	0x0f	15
5	0xda	-38
6	0x09	9
7	0x02	2
8	0x0c	12
9	0x18	24
10	0x0a	10
11	0xe7	-25
12	0x22	34
13	0x10	16
14	0xdf	-33
15	0x09	9
16	0xee	-18
17	0xea	-22
18	0x0b	11
19	0x07	7
20	0x12	18
21	0xda	-38
22	0xfe	-2
23	0xe7	-25
24	0xf8	-8
25	0x0a	10
26	0xf5	-11
27	0xdc	-36
28	0x1c	28
29	0xec	-20
30	0xe3	-29
31	0xe8	-24
32	0xe2	-30
33	0xde	-34
34	0xf5	-11
35	0x03	3
36	0xf7	-9
37	0xd3	-45
38	0x0c	12
39	0xd4	-44
40	0x11	17
41	0xfe	-2
42	0x01	1
43	0x16	22
44	0x00	0
45	0xea	-22
46	0xf1	-15
47	0x0b	11
48	0xf5	-11
49	0xfb	-5
50	0xf7	-9
51	0xe3	-29
52	0x04	4
53	0xe0	-32
54	0x1c	28
55	0xe1	-31
56	0x16	22
57	0xea	-22
58	0xe1	-31
59	0xf9	-7
60	0x05	5
61	0xf8	-8
62	0x1c	28
63	0x0e	14
64	0x09	9
65	0xd6	-42
66	0x00	0
67	0xe8	-24
68	0x0d	13
69	0x0c	12
70	0x0f	15
71	0xf9	-7
72	0x03	3
73	0xea	-22
74	0x1f	31
75	0xf6	-10
76	0x12	18
77	0xf8	-8
78	0xf5	-11
79	0x20	32
80	0x01	1
81	0x13	19
82	0x04	4
83	0x07	7
84	0xf9	-7
85	0x02	2
86	0x01	1
87	0x0c	12
88	0xf1	-15
89	0x15	21
90	0x19	25
91	0xe2	-30
92	0xe3	-29
93	0x14	20
94	0xe8	-24
95	0x15	21
96	0xf5	-11
97	0xe7	-25
98	0xff	-1
99	0x0d	13
100	0x05	5
101	0x0a	10
102	0xf3	-13
103	0xf3	-13
104	0xf1	-15
105	0xee	-18
106	0xfe	-2
107	0xed	-19
108	0x08	8
109	0xd5	-43
110	0xee	-18
111	0xfd	-3
112	0x1b	27
113	0xd6	-42
114	0x1a	26
115	0x15	21
116	0x0d	13
117	0x1c	28
118	0xe1	-31
119	0x17	23
120	0xf4	-12
121	0xea	-22
122	0xef	-17
123	0xe8	-24
124	0xe2	-30
125	0xf8	-8
126	0x13	19
127	0x12	18
128	0xf2	-14
129	0x00	0
130	0xe0	-32
131	0x0f	15
132	0x05	5
133	0x04	4
134	0x04	4
135	0x0f	15
136	0x17	23
137	0xf4	-12
138	0x06	6
139	0xf3	-13
140	0xeb	-21
141	0x0d	13
142	0xec	-20
143	0x03	3
144	0x12	18
145	0xbc	-68
146	0x0d	13
147	0xe7	-25
148	0xed	-19
149	0x12	18
150	0xfb	-5
151	0xfd	-3
152	0x0f	15
153	0xfa	-6
154	0xf5	-11
155	0x00	0
156	0x0e	14
157	0x01	1
158	0xf1	-15
159	0xf0	-16
160	0x17	23
161	0x1f	31
162	0x10	16
163	0x02	2
164	0x09	9
165	0x01	1
166	0xea	-22
167	0x06	6
168	0x15	21
169	0xec	-20
170	0x00	0
171	0x1a	26
172	0x07	7
173	0xd0	-48
174	0x10	16
175	0xec	-20
176	0x0c	12
177	0xfe	-2
178	0x0c	12
179	0xfb	-5
180	0x02	2
181	0xec	-20
182	0x1d	29
183	0xf4	-12
184	0x05	5
185	0xf7	-9
186	0xf4	-12
187	0x09	9
188	0x04	4
189	0x0e	14
190	0xf9	-7
191	0xde	-34
192	0x0c	12
193	0x0c	12
194	0x12	18
195	0xff	-1
196	0x1b	27
197	0xdf	-33
198	0x18	24
199	0x1a	26
200	0xe6	-26
201	0x0a	10
202	0x10	16
203	0xef	-17
204	0x16	22
205	0x02	2
206	0x0c	12
207	0x1d	29
208	0xf4	-12
209	0xc9	-55
210	0xfc	-4
211	0xfa	-6
212	0x0a	10
213	0x11	17
214	0xfe	-2
215	0x02	2
216	0xeb	-21
217	0xe3	-29
218	0xdd	-35
219	0xd1	-47
220	0xf6	-10
221	0xec	-20
222	0x10	16
223	0xf1	-15
224	0x1d	29
225	0xee	-18
226	0xef	-17
227	0xed	-19
228	0x0c	12
229	0xf3	-13
230	0xfc	-4
231	0xf9	-7
232	0x0a	10
233	0xf7	-9
234	0xf7	-9
235	0x13	19
236	0x02	2
237	0xfe	-2
238	0x1b	27
239	0xec	-20
240	0x18	24
241	0x13	19
242	0xe6	-26
243	0x1d	29
244	0x02	2
245	0xe4	-28
246	0xfa	-6
247	0x1b	27
248	0x08	8
249	0xfe	-2
250	0xd9	-39
251	0x16	22
252	0xf4	-12
253	0xdf	-33
254	0x0c	12
255	0xef	-17

Nvidia_Model/conv2d_3/Conv2D/ReadVariableOp i1 [64, 3, 3, 48]
0	0x38	56
1	0x0e	14
2	0xfe	-2
3	0xf1	-15
4	0xf9	-7
5	0xfa	-6
6	0xff	-1
7	0x11	17
8	0xf8	-8
9	0x14	20
10	0xf1	-15
11	0xf9	-7
12	0x28	40
13	0xdc	-36
14	0xe4	-28
15	0xee	-18
16	0xea	-22
17	0x4a	74
18	0x18	24
19	0xe8	-24
20	0xee	-18
21	0x08	8
22	0xf2	-14
23	0xda	-38
24	0x25	37
25	0xe1	-31
26	0xf3	-13
27	0x26	38
28	0x17	23
29	0x09	9
30	0xea	-22
31	0x09	9
32	0xf8	-8
33	0xf4	-12
34	0xf6	-10
35	0xe2	-30
36	0xf9	-7
37	0x18	24
38	0xe9	-23
39	0xea	-22
40	0xf2	-14
41	0xfb	-5
42	0xf8	-8
43	0xfd	-3
44	0x00	0
45	0xee	-18
46	0x09	9
47	0xbf	-65
48	0x0f	15
49	0x03	3
50	0x00	0
51	0x01	1
52	0x14	20
53	0x21	33
54	0xf6	-10
55	0x0a	10
56	0xe6	-26
57	0x0d	13
58	0x1a	26
59	0xf8	-8
60	0x09	9
61	0xe3	-29
62	0xe7	-25
63	0xe3	-29
64	0xf8	-8
65	0x48	72
66	0x03	3
67	0xe8	-24
68	0xf4	-12
69	0x0c	12
70	0xe0	-32
71	0x31	49
72	0x46	70
73	0x22	34
74	0x22	34
75	0xe7	-25
76	0xfb	-5
77	0x18	24
78	0x1f	31
79	0x0e	14
80	0xee	-18
81	0x0f	15
82	0x1a	26
83	0x15	21
84	0xd9	-39
85	0x14	20
86	0x01	1
87	0x19	25
88	0xe2	-30
89	0x1f	31
90	0x33	51
91	0x0b	11
92	0xf3	-13
93	0xd9	-39
94	0xfd	-3
95	0xeb	-21
96	0xde	-34
97	0x0f	15
98	0x19	25
99	0x0c	12
100	0xe9	-23
101	0x0f	15
102	0x05	5
103	0x07	7
104	0xff	-1
105	0xd9	-39
106	0x1f	31
107	0xf8	-8
108	0x0e	14
109	0xdf	-33
110	0xdb	-37
111	0x12	18
112	0x1d	29
113	0x2f	47
114	0xf1	-15
115	0xf6	-10
116	0xe1	-31
117	0xfa	-6
118	0x16	22
119	0x0b	11
120	0x39	57
121	0x11	17
122	0x0b	11
123	0x1f	31
124	0xf6	-10
125	0x24	36
126	0xf9	-7
127	0xeb	-21
128	0x1a	26
129	0xd8	-40
130	0x23	35
131	0xf2	-14
132	0xfa	-6
133	0xdf	-33
134	0x13	19
135	0xe2	-30
136	0x01	1
137	0x11	17
138	0x27	39
139	0x1b	27
140	0x25	37
141	0xd9	-39
142	0xf6	-10
143	0xe7	-25
144	0x42	66
145	0x17	23
146	0xfe	-2
147	0x05	5
148	0x18	24
149	0xd9	-39
150	0xf9	-7
151	0xe9	-23
152	0xe3	-29
153	0x20	32
154	0xe3	-29
155	0x13	19
156	0x0b	11
157	0x17	23
158	0x0b	11
159	0x10	16
160	0x0f	15
161	0x05	5
162	0xee	-18
163	0x0a	10
164	0x1e	30
165	0x12	18
166	0xf6	-10
167	0xbd	-67
168	0x11	17
169	0x01	1
170	0x1e	30
171	0xf2	-14
172	0x03	3
173	0xd5	-43
174	0x05	5
175	0xe1	-31
176	0x25	37
177	0xef	-17
178	0x24	36
179	0x0f	15
180	0x05	5
181	0x09	9
182	0xe2	-30
183	0xe8	-24
184	0x01	1
185	0xe6	-26
186	0xfd	-3
187	0x1c	28
188	0x09	9
189	0x03	3
190	0x10	16
191	0xfb	-5
192	0x1d	29
193	0x12	18
194	0x01	1
195	0xfb	-5
196	0x07	7
197	0x05	5
198	0x19	25
199	0xde	-34
200	0x04	4
201	0x13	19
202	0xf8	-8
203	0xfc	-4
204	0x06	6
205	0xf3	-13
206	0x22	34
207	0x19	25
208	0xdb	-37
209	0x06	6
210	0x04	4
211	0xe4	-28
212	0xd8	-40
213	0x23	35
214	0x02	2
215	0x0c	12
216	0x28	40
217	0x0c	12
218	0xe3	-29
219	0xee	-18
220	0xf6	-10
221	0x17	23
222	0x19	25
223	0xf1	-15
224	0x14	20
225	0x08	8
226	0xeb	-21
227	0x01	1
228	0x1d	29
229	0x26	38
230	0x0c	12
231	0x15	21
232	0x19	25
233	0xe7	-25
234	0x33	51
235	0xde	-34
236	0x0c	12
237	0xee	-18
238	0xdd	-35
239	0xf9	-7
240	0xff	-1
241	0xe2	-30
242	0x26	38
243	0x23	35
244	0x18	24
245	0xf1	-15
246	0xdf	-33
247	0x22	34
248	0xf3	-13
249	0x1d	29
250	0x1f	31
251	0xff	-1
252	0x17	23
253	0x0f	15
254	0xe9	-23
255	0x1e	30

Nvidia_Model/conv2d_4/Conv2D/ReadVariableOp i1 [64, 3, 3, 64]
0	0xf4	-12
1	0x34	52
2	0xf4	-12
3	0x0e	14
4	0x9f	-97
5	0xfb	-5
6	0xfb	-5
7	0xa5	-91
8	0x9e	-98
9	0xb6	-74
10	0x1d	29
11	0x03	3
12	0xc8	-56
13	0xe6	-26
14	0x9c	-100
15	0xa8	-88
16	0xf3	-13
17	0x3c	60
18	0x03	3
19	0xbb	-69
20	0xd8	-40
21	0xc6	-58
22	0xab	-85
23	0x19	25
24	0xcd	-51
25	0xed	-19
26	0xf6	-10
27	0x4f	79
28	0xa2	-94
29	0xc2	-62
30	0xfe	-2
31	0xd6	-42
32	0xe0	-32
33	0x00	0
34	0xc3	-61
35	0xdd	-35
36	0x0e	14
37	0xc3	-61
38	0xcd	-51
39	0xe1	-31
40	0xee	-18
41	0x38	56
42	0xc2	-62
43	0xed	-19
44	0xe6	-26
45	0x06	6
46	0xa9	-87
47	0x3d	61
48	0x40	64
49	0x4e	78
50	0xa0	-96
51	0x0c	12
52	0xef	-17
53	0x0c	12
54	0xad	-83
55	0xe7	-25
56	0x9e	-98
57	0xca	-54
58	0x8e	-114
59	0x87	-121
60	0xbc	-68
61	0xa5	-91
62	0x1d	29
63	0xe7	-25
64	0x4c	76
65	0xf3	-13
66	0x1f	31
67	0xc8	-56
68	0xcb	-53
69	0xd7	-41
70	0xa2	-94
71	0x3f	63
72	0x41	65
73	0x3a	58
74	0xd7	-41
75	0xfb	-5
76	0x31	49
77	0x26	38
78	0x28	40
79	0xe6	-26
80	0xd3	-45
81	0xa3	-93
82	0x3a	58
83	0x3c	60
84	0x13	19
85	0x56	86
86	0xd2	-46
87	0xff	-1
88	0x4a	74
89	0x2d	45
90	0x9c	-100
91	0xce	-50
92	0x35	53
93	0x5d	93
94	0x0b	11
95	0x1a	26
96	0x98	-104
97	0x4d	77
98	0x37	55
99	0x1b	27
100	0x5b	91
101	0xcf	-49
102	0xbb	-69
103	0x3f	63
104	0x9a	-102
105	0x5a	90
106	0x39	57
107	0x28	40
108	0x0a	10
109	0xc9	-55
110	0x9f	-97
111	0xe2	-30
112	0x53	83
113	0x20	32
114	0x91	-111
115	0x9c	-100
116	0x40	64
117	0xc4	-60
118	0x3d	61
119	0x00	0
120	0xcf	-49
121	0x36	54
122	0xb9	-71
123	0x9c	-100
124	0x14	20
125	0xb1	-79
126	0x2a	42
127	0xdd	-35
128	0xa4	-92
129	0x1e	30
130	0x9a	-102
131	0xc6	-58
132	0xda	-38
133	0x12	18
134	0x0d	13
135	0xde	-34
136	0x93	-109
137	0x18	24
138	0xac	-84
139	0x96	-106
140	0xbb	-69
141	0xfc	-4
142	0xbd	-67
143	0xb6	-74
144	0x4b	75
145	0x53	83
146	0xda	-38
147	0xd1	-47
148	0x57	87
149	0xea	-22
150	0x30	48
151	0xad	-83
152	0xa3	-93
153	0x33	51
154	0x5b	91
155	0xe5	-27
156	0xd9	-39
157	0xc3	-61
158	0xb7	-73
159	0xfb	-5
160	0x9a	-102
161	0x94	-108
162	0x52	82
163	0x9c	-100
164	0x28	40
165	0xe3	-29
166	0xcf	-49
167	0xa7	-89
168	0xfb	-5
169	0xb2	-78
170	0xea	-22
171	0x06	6
172	0xc3	-61
173	0xcf	-49
174	0x23	35
175	0x63	99
176	0x52	82
177	0xf1	-15
178	0xca	-54
179	0x23	35
180	0xc1	-63
181	0x27	39
182	0xd9	-39
183	0xbe	-66
184	0xb2	-78
185	0x3f	63
186	0x27	39
187	0xdc	-36
188	0x32	50
189	0x41	65
190	0x10	16
191	0xac	-84
192	0x2a	42
193	0xbb	-69
194	0xe4	-28
195	0x34	52
196	0xc9	-55
197	0x42	66
198	0xb2	-78
199	0x2a	42
200	0xbe	-66
201	0x59	89
202	0xf6	-10
203	0xa9	-87
204	0xd7	-41
205	0xf2	-14
206	0xd2	-46
207	0xbd	-67
208	0xef	-17
209	0xd2	-46
210	0x40	64
211	0x46	70
212	0x38	56
213	0xb3	-77
214	0x00	0
215	0x9e	-98
216	0x52	82
217	0x33	51
218	0xad	-83
219	0x28	40
220	0x37	55
221	0x00	0
222	0xfd	-3
223	0x59	89
224	0xe5	-27
225	0xda	-38
226	0xde	-34
227	0xe9	-23
228	0x0d	13
229	0x24	36
230	0xd7	-41
231	0x9f	-97
232	0x0d	13
233	0x5a	90
234	0x6e	110
235	0x30	48
236	0x96	-106
237	0x54	84
238	0xba	-70
239	0x2d	45
240	0x19	25
241	0xc5	-59
242	0x1d	29
243	0xdb	-37
244	0x05	5
245	0xf1	-15
246	0x03	3
247	0x37	55
248	0xa6	-90
249	0x18	24
250	0x13	19
251	0x4c	76
252	0xde	-34
253	0x9d	-99
254	0xa6	-90
255	0x47	71

Nvidia_Model/dense/MatMul/ReadVariableOp/transpose i1 [100, 1152] scale=0.003999005 zero_point=0
0	0xf4	-0.04798806
1	0xf1	-0.059985075
2	0x0e	0.05598607
3	0x08	0.03199204
4	0xe7	-0.099975124
5	0x00	0.0
6	0x00	0.0
7	0x0d	0.051987067
8	0xf0	-0.06398408
9	0x10	0.06398408
10	0x09	0.035991047
11	0xef	-0.06798308
12	0x08	0.03199204
13	0xf2	-0.05598607
14	0x09	0.035991047
15	0xfa	-0.02399403
16	0x01	0.003999005
17	0x0c	0.04798806
18	0x03	0.011997015
19	0x01	0.003999005
20	0xee	-0.07198209
21	0xf8	-0.03199204
22	0xf7	-0.035991047
23	0xfe	-0.00799801
24	0x06	0.02399403
25	0x0b	0.043989055
26	0xf2	-0.05598607
27	0xf7	-0.035991047
28	0x0e	0.05598607
29	0x06	0.02399403
30	0xfe	-0.00799801
31	0x12	0.07198209
32	0xfc	-0.01599602
33	0x12	0.07198209
34	0x0d	0.051987067
35	0x09	0.035991047
36	0xf3	-0.051987067
37	0x01	0.003999005
38	0x03	0.011997015
39	0x03	0.011997015
40	0x07	0.027993035
41	0x00	0.0
42	0xf7	-0.035991047
43	0xfa	-0.02399403
44	0x01	0.003999005
45	0xf9	-0.027993035
46	0x11	0.06798308
47	0x06	0.02399403
48	0xfd	-0.011997015
49	0x05	0.019995026
50	0xe9	-0.09197712
51	0xfd	-0.011997015
52	0xf1	-0.059985075
53	0xf2	-0.05598607
54	0xf1	-0.059985075
55	0x09	0.035991047
56	0xff	-0.003999005
57	0xee	-0.07198209
58	0x0c	0.04798806
59	0xfb	-0.019995026
60	0x01	0.003999005
61	0x0b	0.043989055
62	0x02	0.00799801
63	0xf8	-0.03199204
64	0xff	-0.003999005
65	0x0e	0.05598607
66	0xf4	-0.04798806
67	0x04	0.01599602
68	0x11	0.06798308
69	0xf5	-0.043989055
70	0xf2	-0.05598607
71	0xfd	-0.011997015
72	0xf2	-0.05598607
73	0x09	0.035991047
74	0x0d	0.051987067
75	0xfc	-0.01599602
76	0x08	0.03199204
77	0x00	0.0
78	0x00	0.0
79	0xfc	-0.01599602
80	0x07	0.027993035
81	0x09	0.035991047
82	0x06	0.02399403
83	0xfc	-0.01599602
84	0x08	0.03199204
85	0x0f	0.059985075
86	0x0f	0.059985075
87	0xf3	-0.051987067
88	0xfa	-0.02399403
89	0xf4	-0.04798806
90	0xf8	-0.03199204
91	0xf7	-0.035991047
92	0xf0	-0.06398408
93	0x09	0.035991047
94	0x0c	0.04798806
95	0x0d	0.051987067
96	0xfe	-0.00799801
97	0xf0	-0.06398408
98	0xf3	-0.051987067
99	0x03	0.011997015
100	0x02	0.00799801
101	0xff	-0.003999005
102	0xf8	-0.03199204
103	0xfd	-0.011997015
104	0xf2	-0.05598607
105	0xef	-0.06798308
106	0xf8	-0.03199204
107	0xee	-0.07198209
108	0x10	0.06398408
109	0xf2	-0.05598607
110	0x05	0.019995026
111	0xf1	-0.059985075
112	0xf2	-0.05598607
113	0x0c	0.04798806
114	0x09	0.035991047
115	0x0a	0.039990053
116	0x0b	0.043989055
117	0xfc	-0.01599602
118	0xf4	-0.04798806
119	0x00	0.0
120	0x10	0.06398408
121	0x04	0.01599602
122	0x09	0.035991047
123	0x0b	0.043989055
124	0xf6	-0.039990053
125	0xff	-0.003999005
126	0x00	0.0
127	0xf6	-0.039990053
128	0xf5	-0.043989055
129	0x0e	0.05598607
130	0xf7	-0.035991047
131	0x16	0.08797811
132	0xee	-0.07198209
133	0xf6	-0.039990053
134	0xfe	-0.00799801
135	0xf6	-0.039990053
136	0xf1	-0.059985075
137	0x08	0.03199204
138	0x01	0.003999005
139	0xf9	-0.027993035
140	0x0f	0.059985075
141	0x07	0.027993035
142	0xfd	-0.011997015
143	0xff	-0.003999005
144	0xfd	-0.011997015
145	0xfc	-0.01599602
146	0x06	0.02399403
147	0x05	0.019995026
148	0xf4	-0.04798806
149	0x0c	0.04798806
150	0xf4	-0.04798806
151	0x0b	0.043989055
152	0x0a	0.039990053
153	0x0a	0.039990053
154	0xed	-0.075981095
155	0xfd	-0.011997015
156	0xf8	-0.03199204
157	0xf5	-0.043989055
158	0x01	0.003999005
159	0x10	0.06398408
160	0x17	0.09197712
161	0xf2	-0.05598607
162	0xf8	-0.03199204
163	0x12	0.07198209
164	0xee	-0.07198209
165	0x14	0.079980105
166	0x09	0.035991047
167	0x02	0.00799801
168	0x0e	0.05598607
169	0xf4	-0.04798806
170	0xef	-0.06798308
171	0x06	0.02399403
172	0x09	0.035991047
173	0x0b	0.043989055
174	0x06	0.02399403
175	0x0f	0.059985075
176	0x07	0.027993035
177	0x0f	0.059985075
178	0x0f	0.059985075
179	0x10	0.06398408
180	0xf5	-0.043989055
181	0xf3	-0.051987067
182	0x07	0.027993035
183	0xf3	-0.051987067
184	0x05	0.019995026
185	0xf4	-0.04798806
186	0xf8	-0.03199204
187	0xf9	-0.027993035
188	0xfa	-0.02399403
189	0xf0	-0.06398408
190	0xfa	-0.02399403
191	0xfe	-0.00799801
192	0x10	0.06398408
193	0x14	0.079980105
194	0xfe	-0.00799801
195	0x06	0.02399403
196	0x17	0.09197712
197	0x06	0.02399403
198	0x07	0.027993035
199	0xf1	-0.059985075
200	0xfe	-0.00799801
201	0x06	0.02399403
202	0x11	0.06798308
203	0x01	0.003999005
204	0xfd	-0.011997015
205	0xf4	-0.04798806
206	0xfa	-0.02399403
207	0x0f	0.059985075
208	0xff	-0.003999005
209	0x09	0.035991047
210	0x01	0.003999005
211	0x06	0.02399403
212	0xff	-0.003999005
213	0xfc	-0.01599602
214	0x00	0.0
215	0x0e	0.05598607
216	0x0d	0.051987067
217	0xfc	-0.01599602
218	0xfd	-0.011997015
219	0xf3	-0.051987067
220	0xfa	-0.02399403
221	0x08	0.03199204
222	0x06	0.02399403
223	0x02	0.00799801
224	0x01	0.003999005
225	0x10	0.06398408
226	0xf1	-0.059985075
227	0xfa	-0.02399403
228	0xf3	-0.051987067
229	0x14	0.079980105
230	0xf9	-0.027993035
231	0x01	0.003999005
232	0xfa	-0.02399403
233	0x11	0.06798308
234	0x0c	0.04798806
235	0x05	0.019995026
236	0xf0	-0.06398408
237	0x04	0.01599602
238	0x0b	0.043989055
239	0x0b	0.043989055
240	0x02	0.00799801
241	0x09	0.035991047
242	0x08	0.03199204
243	0xf7	-0.035991047
244	0x13	0.075981095
245	0x0d	0.051987067
246	0x05	0.019995026
247	0x04	0.01599602
248	0xfc	-0.01599602
249	0x09	0.035991047
250	0xfd	-0.011997015
251	0x0b	0.043989055
252	0x0a	0.039990053
253	0x04	0.01599602
254	0x0a	0.039990053
255	0x0b	0.043989055

Nvidia_Model/dense_1/MatMul/ReadVariableOp/transpose i1 [50, 100] scale=0.0037708033 zero_point=0
0	0xe8	-0.09049928
1	0x2f	0.17722775
2	0x2d	0.16968615
3	0x23	0.13197811
4	0xcb	-0.19985257
5	0xe8	-0.09049928
6	0x1d	0.1093533
7	0xe9	-0.086728476
8	0x18	0.09049928
9	0xf8	-0.030166427
10	0x27	0.14706133
11	0xfa	-0.02262482
12	0x2d	0.16968615
13	0x13	0.07164526
14	0x09	0.03393723
15	0xfe	-0.0075416067
16	0x20	0.12066571
17	0xf1	-0.05656205
18	0xd5	-0.16214454
19	0x2a	0.15837374
20	0xfc	-0.015083213
21	0x2a	0.15837374
22	0xf1	-0.05656205
23	0xe2	-0.1131241
24	0xdf	-0.12443651
25	0x09	0.03393723
26	0xf7	-0.03393723
27	0xd6	-0.15837374
28	0x02	0.0075416067
29	0x04	0.015083213
30	0xf2	-0.052791245
31	0x2e	0.17345695
32	0x04	0.015083213
33	0xf3	-0.049020443
34	0x10	0.060332853
35	0x0d	0.049020443
36	0xdf	-0.12443651
37	0xea	-0.08295767
38	0xf3	-0.049020443
39	0xfc	-0.015083213
40	0xfb	-0.018854016
41	0x02	0.0075416067
42	0x1a	0.098040886
43	0x32	0.18854016
44	0x21	0.12443651
45	0xdb	-0.13951972
46	0xfd	-0.01131241
47	0xef	-0.064103656
48	0x02	0.0075416067
49	0x32	0.18854016
50	0x01	0.0037708033
51	0x21	0.12443651
52	0x28	0.15083213
53	0xf4	-0.04524964
54	0xe7	-0.09427008
55	0xe4	-0.10558249
56	0xe2	-0.1131241
57	0x03	0.01131241
58	0xf9	-0.026395623
59	0x20	0.12066571
60	0xf0	-0.060332853
61	0xe9	-0.086728476
62	0x09	0.03393723
63	0xea	-0.08295767
64	0x17	0.086728476
65	0xdc	-0.13574892
66	0x09	0.03393723
67	0x31	0.18476936
68	0x03	0.01131241
69	0x19	0.09427008
70	0xee	-0.06787446
71	0x2a	0.15837374
72	0xde	-0.12820731
73	0x18	0.09049928
74	0xce	-0.18854016
75	0xdf	-0.12443651
76	0x24	0.13574892
77	0xdb	-0.13951972
78	0x08	0.030166427
79	0x2a	0.15837374
80	0xee	-0.06787446
81	0xf3	-0.049020443
82	0xe1	-0.1168949
83	0xe5	-0.10181169
84	0x0b	0.041478835
85	0x10	0.060332853
86	0x03	0.01131241
87	0x02	0.0075416067
88	0xdd	-0.13197811
89	0xe1	-0.1168949
90	0xdf	-0.12443651
91	0x11	0.064103656
92	0xe1	-0.1168949
93	0xf6	-0.037708033
94	0x1e	0.1131241
95	0xf6	-0.037708033
96	0xec	-0.075416066
97	0x28	0.15083213
98	0x1f	0.1168949
99	0xd8	-0.15083213
100	0xed	-0.07164526
101	0x29	0.15460293
102	0x11	0.064103656
103	0x13	0.07164526
104	0x28	0.15083213
105	0x31	0.18476936
106	0x01	0.0037708033
107	0x17	0.086728476
108	0xea	-0.08295767
109	0x01	0.0037708033
110	0xe7	-0.09427008
111	0x2b	0.16214454
112	0x0b	0.041478835
113	0x2c	0.16591534
114	0x12	0.06787446
115	0x27	0.14706133
116	0xee	-0.06787446
117	0xd4	-0.16591534
118	0xe4	-0.10558249
119	0xdb	-0.13951972
120	0xda	-0.14329052
121	0xd6	-0.15837374
122	0x03	0.01131241
123	0xd6	-0.15837374
124	0x0f	0.05656205
125	0x0b	0.041478835
126	0xea	-0.08295767
127	0x14	0.075416066
128	0xe2	-0.1131241
129	0x24	0.13574892
130	0xe9	-0.086728476
131	0xf3	-0.049020443
132	0xf5	-0.041478835
133	0x07	0.026395623
134	0xf0	-0.060332853
135	0xe8	-0.09049928
136	0x02	0.0075416067
137	0xe7	-0.09427008
138	0xd9	-0.14706133
139	0x0e	0.052791245
140	0xd7	-0.15460293
141	0x17	0.086728476
142	0xcf	-0.18476936
143	0xcc	-0.19608177
144	0x2e	0.17345695
145	0x27	0.14706133
146	0x1d	0.1093533
147	0xea	-0.08295767
148	0x19	0.09427008
149	0x10	0.060332853
150	0x08	0.030166427
151	0xf2	-0.052791245
152	0x0a	0.037708033
153	0x29	0.15460293
154	0xf0	-0.060332853
155	0xe4	-0.10558249
156	0x1e	0.1131241
157	0x26	0.14329052
158	0x0f	0.05656205
159	0xdb	-0.13951972
160	0xf1	-0.05656205
161	0x1f	0.1168949
162	0x07	0.026395623
163	0x0a	0.037708033
164	0xf8	-0.030166427
165	0x25	0.13951972
166	0xe3	-0.1093533
167	0x02	0.0075416067
168	0xe6	-0.098040886
169	0x12	0.06787446
170	0xf2	-0.052791245
171	0x0e	0.052791245
172	0xe3	-0.1093533
173	0xd4	-0.16591534
174	0xfd	-0.01131241
175	0xe4	-0.10558249
176	0xf2	-0.052791245
177	0xd1	-0.17722775
178	0x1a	0.098040886
179	0x00	0.0
180	0xf4	-0.04524964
181	0xe6	-0.098040886
182	0xe5	-0.10181169
183	0xfc	-0.015083213
184	0x0d	0.049020443
185	0x08	0.030166427
186	0x12	0.06787446
187	0x30	0.18099856
188	0xed	-0.07164526
189	0xcc	-0.19608177
190	0x1e	0.1131241
191	0xfc	-0.015083213
192	0xd3	-0.16968615
193	0xe9	-0.086728476
194	0xe9	-0.086728476
195	0x03	0.01131241
196	0x05	0.018854016
197	0xcf	-0.18476936
198	0xfb	-0.018854016
199	0xe9	-0.086728476
200	0x1f	0.1168949
201	0xe6	-0.098040886
202	0xef	-0.064103656
203	0xd7	-0.15460293
204	0xce	-0.18854016
205	0xe3	-0.1093533
206	0xec	-0.075416066
207	0xda	-0.14329052
208	0xcb	-0.19985257
209	0x14	0.075416066
210	0x2e	0.17345695
211	0xff	-0.0037708033
212	0xfe	-0.0075416067
213	0xf1	-0.05656205
214	0x04	0.015083213
215	0x0e	0.052791245
216	0xd6	-0.15837374
217	0x08	0.030166427
218	0x28	0.15083213
219	0x30	0.18099856
220	0x2e	0.17345695
221	0x0e	0.052791245
222	0x08	0.030166427
223	0xf6	-0.037708033
224	0xd3	-0.16968615
225	0x2f	0.17722775
226	0x0a	0.037708033
227	0x17	0.086728476
228	0x2a	0.15837374
229	0x1e	0.1131241
230	0x27	0.14706133
231	0xff	-0.0037708033
232	0x08	0.030166427
233	0xd1	-0.17722775
234	0xce	-0.18854016
235	0x06	0.02262482
236	0x25	0.13951972
237	0x2a	0.15837374
238	0x23	0.13197811
239	0xd0	-0.18099856
240	0x14	0.075416066
241	0xe9	-0.086728476
242	0x2b	0.16214454
243	0x06	0.02262482
244	0x07	0.026395623
245	0x07	0.026395623
246	0xcf	-0.18476936
247	0x2a	0.15837374
248	0x0f	0.05656205
249	0x1b	0.10181169
250	0xe8	-0.09049928
251	0xdb	-0.13951972
252	0xf7	-0.03393723
253	0xcc	-0.19608177
254	0x20	0.12066571
255	0x22	0.12820731

Nvidia_Model/dense_2/MatMul/ReadVariableOp/transpose i1 [10, 50] scale=0.0037644107 zero_point=0
0	0xfb	-0.018822053
1	0xf3	-0.04893734
2	0xbc	-0.25597993
3	0xdf	-0.12422556
4	0xed	-0.0715238
5	0x0d	0.04893734
6	0xd5	-0.16186966
7	0xd3	-0.16939849
8	0xde	-0.12798996
9	0xc1	-0.23715788
10	0xcc	-0.19574936
11	0xe3	-0.10916791
12	0xc5	-0.22210023
13	0x08	0.030115286
14	0xf9	-0.026350874
15	0xfe	-0.0075288215
16	0x32	0.18822053
17	0xd4	-0.16563407
18	0x3a	0.21833582
19	0xbc	-0.25597993
20	0xb5	-0.2823308
21	0x08	0.030115286
22	0x25	0.1392832
23	0x3f	0.23715788
24	0xe2	-0.112932324
25	0x0f	0.056466162
26	0x2c	0.16563407
27	0xb8	-0.27103758
28	0x01	0.0037644107
29	0x19	0.094110265
30	0xe9	-0.086581446
31	0xe0	-0.12046114
32	0x0d	0.04893734
33	0xe4	-0.1054035
34	0x4a	0.2785664
35	0x4b	0.2823308
36	0xd8	-0.15057643
37	0xf0	-0.06023057
38	0x08	0.030115286
39	0xe8	-0.09034586
40	0xde	-0.12798996
41	0x2f	0.1769273
42	0xb8	-0.27103758
43	0x4f	0.29738843
44	0xf3	-0.04893734
45	0x17	0.086581446
46	0x09	0.033879697
47	0xbd	-0.2522155
48	0xc9	-0.20704259
49	0xf8	-0.030115286
50	0xfc	-0.015057643
51	0x3a	0.21833582
52	0xeb	-0.07905263
53	0x14	0.075288214
54	0xac	-0.3162105
55	0x2b	0.16186966
56	0xe4	-0.1054035
57	0x55	0.3199749
58	0x40	0.24092229
59	0xea	-0.08281703
60	0xff	-0.0037644107
61	0x58	0.33126813
62	0x10	0.06023057
63	0x0d	0.04893734
64	0xb7	-0.27480197
65	0x47	0.26727316
66	0xd0	-0.18069172
67	0x30	0.18069172
68	0x6d	0.41032076
69	0xf1	-0.056466162
70	0x1d	0.10916791
71	0x1e	0.112932324
72	0x20	0.12046114
73	0xca	-0.20327818
74	0x2c	0.16563407
75	0xa0	-0.36138344
76	0xe7	-0.094110265
77	0x4d	0.28985962
78	0x81	-0.47808015
79	0xc8	-0.210807
80	0xba	-0.26350874
81	0x2d	0.16939849
82	0xb9	-0.26727316
83	0x05	0.018822053
84	0x2d	0.16939849
85	0x1f	0.11669673
86	0x0c	0.04517293
87	0x18	0.09034586
88	0xf1	-0.056466162
89	0x3f	0.23715788
90	0xfb	-0.018822053
91	0xce	-0.18822053
92	0xdb	-0.1392832
93	0xb7	-0.27480197
94	0x1e	0.112932324
95	0x2f	0.1769273
96	0x25	0.1392832
97	0xb4	-0.2860952
98	0x17	0.086581446
99	0x0b	0.041408516
100	0xd0	-0.18069172
101	0xf9	-0.026350874
102	0xde	-0.12798996
103	0x41	0.2446867
104	0x02	0.0075288215
105	0x0d	0.04893734
106	0xf3	-0.04893734
107	0xc6	-0.21833582
108	0x26	0.1430476
109	0x2d	0.16939849
110	0x17	0.086581446
111	0x09	0.033879697
112	0x1a	0.09787468
113	0x4c	0.2860952
114	0x0e	0.05270175
115	0xd9	-0.14681202
116	0xf3	-0.04893734
117	0xe6	-0.09787468
118	0x10	0.06023057
119	0x3f	0.23715788
120	0xd0	-0.18069172
121	0x43	0.2522155
122	0xf2	-0.05270175
123	0x36	0.20327818
124	0x3c	0.22586465
125	0xba	-0.26350874
126	0xee	-0.067759395
127	0xc9	-0.20704259
128	0xf2	-0.05270175
129	0xef	-0.06399498
130	0x96	-0.39902753
131	0x3f	0.23715788
132	0x23	0.13175437
133	0x55	0.3199749
134	0xfe	-0.0075288215
135	0xff	-0.0037644107
136	0xc8	-0.210807
137	0xb6	-0.2785664
138	0x3e	0.23339346
139	0x45	0.25974435
140	0xcf	-0.18445612
141	0xb7	-0.27480197
142	0x52	0.30868167
143	0x04	0.015057643
144	0x32	0.18822053
145	0xe9	-0.086581446
146	0x42	0.24845111
147	0x2f	0.1769273
148	0xec	-0.075288214
149	0xd9	-0.14681202
150	0xd9	-0.14681202
151	0x4f	0.29738843
152	0xc3	-0.22962905
153	0x36	0.20327818
154	0x0e	0.05270175
155	0xcc	-0.19574936
156	0x03	0.011293232
157	0xcb	-0.19951376
158	0xd2	-0.17316289
159	0x3d	0.22962905
160	0x0b	0.041408516
161	0x0b	0.041408516
162	0xf2	-0.05270175
163	0x0e	0.05270175
164	0xe7	-0.094110265
165	0xd0	-0.18069172
166	0xc8	-0.210807
167	0xdd	-0.13175437
168	0x49	0.27480197
169	0x21	0.12422556
170	0xdd	-0.13175437
171	0x0d	0.04893734
172	0x1c	0.1054035
173	0xf0	-0.06023057
174	0xc2	-0.23339346
175	0xd8	-0.15057643
176	0xe6	-0.09787468
177	0x20	0.12046114
178	0x2a	0.15810525
179	0xf1	-0.056466162
180	0x0a	0.037644107
181	0x46	0.26350874
182	0xd0	-0.18069172
183	0x00	0.0
184	0x45	0.25974435
185	0x31	0.18445612
186	0xfa	-0.022586465
187	0x1c	0.1054035
188	0xf2	-0.05270175
189	0xfe	-0.0075288215
190	0xb6	-0.2785664
191	0x1b	0.10163909
192	0x1f	0.11669673
193	0xfe	-0.0075288215
194	0x0f	0.056466162
195	0xeb	-0.07905263
196	0xb3	-0.28985962
197	0x3b	0.22210023
198	0x51	0.30491728
199	0xc5	-0.22210023
200	0xe8	-0.09034586
201	0x0e	0.05270175
202	0x09	0.033879697
203	0xdc	-0.13551879
204	0x50	0.30115286
205	0x1f	0.11669673
206	0xf5	-0.041408516
207	0xcd	-0.19198495
208	0xbe	-0.24845111
209	0x3f	0.23715788
210	0xe4	-0.1054035
211	0x3e	0.23339346
212	0x3f	0.23715788
213	0x49	0.27480197
214	0xf7	-0.033879697
215	0x56	0.32373932
216	0xf6	-0.037644107
217	0x3f	0.23715788
218	0x3c	0.22586465
219	0x3d	0.22962905
220	0x58	0.33126813
221	0xd9	-0.14681202
222	0x21	0.12422556
223	0xc7	-0.21457142
224	0xcb	-0.19951376
225	0xc2	-0.23339346
226	0x14	0.075288214
227	0xf3	-0.04893734
228	0x55	0.3199749
229	0x5a	0.33879697
230	0xf6	-0.037644107
231	0xf0	-0.06023057
232	0x1e	0.112932324
233	0xd6	-0.15810525
234	0x3f	0.23715788
235	0x29	0.15434083
236	0x36	0.20327818
237	0x4f	0.29738843
238	0xc7	-0.21457142
239	0x1b	0.10163909
240	0x57	0.32750374
241	0x41	0.2446867
242	0xe7	-0.094110265
243	0xc9	-0.20704259
244	0x54	0.3162105
245	0x4b	0.2823308
246	0x4a	0.2785664
247	0xe1	-0.11669673
248	0xd8	-0.15057643
249	0xbd	-0.2522155
250	0x2e	0.17316289
251	0x32	0.18822053
252	0xb2	-0.29362404
253	0x0b	0.041408516
254	0xe9	-0.086581446
255	0xdc	-0.13551879

Nvidia_Model/dense_3/MatMul/ReadVariableOp/transpose i1 [1, 10] scale=0.0056392797 zero_point=0
0	0x62	0.55264944
1	0x13	0.107146315
2	0x5d	0.52445304
3	0x75	0.6597957
4	0xee	-0.10150704
5	0x68	0.5864851
6	0xe7	-0.14098199
7	0x30	0.27068543
8	0x7f	0.71618855
9	0x25	0.20865335
