models/lane_navigation.tflite (tflite, 259824 bytes, 17 tensors)

Nvidia_Model/conv2d/Conv2D/ReadVariableOp i1 [24, 5, 5, 3] scale=0.0014582019 zero_point=0
0	0xe0	-0.04666246
1	0x22	0.049578864
2	0xe5	-0.039371453
3	0x3a	0.08457571
4	0xda	-0.055411674
5	0xbf	-0.09478313
6	0x21	0.048120663
7	0x02	0.0029164038
8	0xeb	-0.03062224
9	0x42	0.096241325
10	0x16	0.03208044
11	0x16	0.03208044
12	0x2d	0.06561909
13	0x39	0.08311751
14	0xc6	-0.08457571
15	0xe2	-0.043746058
16	0xf4	-0.017498422
17	0x13	0.027705837
18	0x52	0.11957256
19	0x27	0.056869876
20	0xc6	-0.08457571
21	0xe7	-0.036455046
22	0xe8	-0.034996845
23	0xc0	-0.09332492
24	0x25	0.05395347
25	0x3a	0.08457571
26	0x31	0.071451895
27	0x05	0.0072910096
28	0x07	0.010207414
29	0x0a	0.014582019
30	0x3f	0.09186672
31	0xe0	-0.04666246
32	0x01	0.0014582019
33	0x34	0.075826496
34	0xe4	-0.040829655
35	0x00	0.0
36	0x29	0.05978628
37	0xe8	-0.034996845
38	0x15	0.03062224
39	0x0e	0.020414827
40	0xc0	-0.09332492
41	0x32	0.07291009
42	0xfe	-0.0029164038
43	0xbd	-0.09769953
44	0x13	0.027705837
45	0x39	0.08311751
46	0xd6	-0.06124448
47	0x39	0.08311751
48	0x1a	0.037913248
49	0x1c	0.040829655
50	0x30	0.06999369
51	0xf5	-0.01604022
52	0x1e	0.043746058
53	0xdb	-0.05395347
54	0xeb	-0.03062224
55	0x2a	0.06124448
56	0xfd	-0.0043746056
57	0x13	0.027705837
58	0x1d	0.042287856
59	0xc1	-0.09186672
60	0x46	0.10207413
61	0xe2	-0.043746058
62	0xfe	-0.0029164038
63	0x42	0.096241325
64	0xf8	-0.011665615
65	0xd1	-0.06853549
66	0x27	0.056869876
67	0xcf	-0.071451895
68	0x1e	0.043746058
69	0xfc	-0.0058328076
70	0x04	0.0058328076
71	0xd8	-0.058328077
72	0x37	0.080201104
73	0x11	0.024789432
74	0x23	0.051037066
75	0x0a	0.014582019
76	0x33	0.0743683
77	0x15	0.03062224
78	0x05	0.0072910096
79	0xf2	-0.020414827
80	0xec	-0.029164039
81	0x11	0.024789432
82	0x2e	0.06707729
83	0xf3	-0.018956624
84	0x03	0.0043746056
85	0xf8	-0.011665615
86	0xc1	-0.09186672
87	0x22	0.049578864
88	0x32	0.07291009
89	0xfa	-0.008749211
90	0x2d	0.06561909
91	0x35	0.0772847
92	0x34	0.075826496
93	0x0d	0.018956624
94	0x11	0.024789432
95	0x04	0.0058328076
96	0xd2	-0.06707729
97	0xda	-0.055411674
98	0xd2	-0.06707729
99	0xfa	-0.008749211
100	0xd8	-0.058328077
101	0x16	0.03208044
102	0xf1	-0.021873029
103	0x0a	0.014582019
104	0xb9	-0.10353234
105	0x09	0.013123817
106	0x2f	0.06853549
107	0xd7	-0.05978628
108	0xf7	-0.013123817
109	0xd1	-0.06853549
110	0x28	0.058328077
111	0xcd	-0.0743683
112	0x27	0.056869876
113	0xe5	-0.039371453
114	0x1a	0.037913248
115	0xd3	-0.06561909
116	0x28	0.058328077
117	0x21	0.048120663
118	0x2f	0.06853549
119	0xd7	-0.05978628
120	0x18	0.034996845
121	0xca	-0.07874291
122	0x0e	0.020414827
123	0xe2	-0.043746058
124	0x2a	0.06124448
125	0xf9	-0.010207414
126	0x46	0.10207413
127	0xe3	-0.042287856
128	0x28	0.058328077
129	0x24	0.052495267
130	0x29	0.05978628
131	0x1f	0.04520426
132	0x45	0.10061593
133	0xf6	-0.014582019
134	0x10	0.02333123
135	0x26	0.055411674
136	0x34	0.075826496
137	0xc6	-0.08457571
138	0x3f	0.09186672
139	0xfd	-0.0043746056
140	0xe9	-0.033538643
141	0x16	0.03208044
142	0xff	-0.0014582019
143	0x37	0.080201104
144	0xff	-0.0014582019
145	0xe8	-0.034996845
146	0x38	0.08165931
147	0x3a	0.08457571
148	0xdf	-0.048120663
149	0x0f	0.021873029
150	0xe9	-0.033538643
151	0x0e	0.020414827
152	0x23	0.051037066
153	0x16	0.03208044
154	0xec	-0.029164039
155	0xd3	-0.06561909
156	0x0c	0.017498422
157	0x27	0.056869876
158	0xe0	-0.04666246
159	0xd5	-0.062702686
160	0x2f	0.06853549
161	0x2a	0.06124448
162	0xdc	-0.052495267
163	0x19	0.036455046
164	0xe3	-0.042287856
165	0xd3	-0.06561909
166	0xf8	-0.011665615
167	0xcf	-0.071451895
168	0xb8	-0.104990534
169	0xed	-0.027705837
170	0x12	0.026247634
171	0xa3	-0.13561277
172	0x04	0.0058328076
173	0x3c	0.087492116
174	0xea	-0.03208044
175	0x27	0.056869876
176	0x2b	0.062702686
177	0xa9	-0.12686357
178	0x46	0.10207413
179	0xfd	-0.0043746056
180	0xa5	-0.13269638
181	0x32	0.07291009
182	0xe3	-0.042287856
183	0xff	-0.0014582019
184	0x44	0.09915773
185	0xe8	-0.034996845
186	0xbf	-0.09478313
187	0x46	0.10207413
188	0x1e	0.043746058
189	0xc5	-0.08603391
190	0xd7	-0.05978628
191	0x42	0.096241325
192	0x08	0.011665615
193	0x29	0.05978628
194	0xff	-0.0014582019
195	0xe8	-0.034996845
196	0x0e	0.020414827
197	0x2f	0.06853549
198	0x8f	-0.16477682
199	0x21	0.048120663
200	0x20	0.04666246
201	0xf1	-0.021873029
202	0x29	0.05978628
203	0x19	0.036455046
204	0x98	-0.15165299
205	0xfd	-0.0043746056
206	0xd5	-0.062702686
207	0x00	0.0
208	0x42	0.096241325
209	0xef	-0.024789432
210	0x9e	-0.14290379
211	0xdb	-0.05395347
212	0xe9	-0.033538643
213	0xf8	-0.011665615
214	0x36	0.07874291
215	0xce	-0.07291009
216	0xa9	-0.12686357
217	0xf1	-0.021873029
218	0x11	0.024789432
219	0xa1	-0.13852918
220	0xd7	-0.05978628
221	0x0c	0.017498422
222	0xa6	-0.13123818
223	0x40	0.09332492
224	0x1c	0.040829655
225	0x37	0.080201104
226	0xea	-0.03208044
227	0xd8	-0.058328077
228	0x41	0.09478313
229	0x21	0.048120663
230	0x22	0.049578864
231	0xfb	-0.0072910096
232	0xe3	-0.042287856
233	0x30	0.06999369
234	0xd4	-0.06416088
235	0xfc	-0.0058328076
236	0x33	0.0743683
237	0x05	0.0072910096
238	0xef	-0.024789432
239	0x23	0.051037066
240	0x02	0.0029164038
241	0x0f	0.021873029
242	0x1d	0.042287856
243	0xf4	-0.017498422
244	0x33	0.0743683
245	0xf0	-0.02333123
246	0x36	0.07874291
247	0x0a	0.014582019
248	0xda	-0.055411674
249	0xda	-0.055411674
250	0x00	0.0
251	0x2d	0.06561909
252	0xde	-0.049578864
253	0x10	0.02333123
254	0xd6	-0.06124448
255	0xe1	-0.04520426

Nvidia_Model/conv2d/Conv2D_bias f4 [24]
0	0xbbafa865	-0.0053606504
1	0xbc241e20	-0.010016948
2	0x3c8dd485	0.017313251
3	0xbc51f091	-0.012813703
4	0x3c271b6b	0.010199408
5	0xbc249047	-0.010044164
6	0xbc1d80a6	-0.009613192
7	0x3b5e1131	0.0033884759
8	0xbbc2432f	-0.005928419
9	0x3c44ca9b	0.0120111955
10	0x3c1bc626	0.0095076915
11	0x3c56cfb2	0.013111042
12	0xbb3562f0	-0.002767738
13	0x3a97bce1	0.0011576676
14	0xbbbd56ea	-0.005778183
15	0xbb7a93b0	-0.0038235001
16	0xbbab0bcd	-0.0052199126
17	0x3cae9ed0	0.021315962
18	0xbbd2c288	-0.0064318813
19	0xbbc33625	-0.0059573823
20	0x3c551d67	0.013007498
21	0xbb896997	-0.0041934955
22	0x3c5ce758	0.013482891
23	0xbc0c8040	-0.008575499

Nvidia_Model/conv2d_1/Conv2D/ReadVariableOp i1 [36, 5, 5, 24] scale=0.002504103 zero_point=0
0	0x15	0.05258616
1	0xfb	-0.012520514
2	0x21	0.082635395
3	0x18	0.06009847
4	0x07	0.01752872
5	0x0f	0.037561543
6	0xfc	-0.010016412
7	0xec	-0.050082058
8	0x0b	0.027545132
9	0x10	0.040065646
10	0x0e	0.03505744
11	0x01	0.002504103
12	0x0d	0.032553338
13	0xf7	-0.022536926
14	0x0e	0.03505744
15	0xfb	-0.012520514
16	0xed	-0.047577955
17	0xfa	-0.015024617
18	0xec	-0.050082058
19	0xf1	-0.037561543
20	0x07	0.01752872
21	0xec	-0.050082058
22	0x09	0.022536926
23	0x03	0.0075123087
24	0xf0	-0.040065646
25	0xe6	-0.065106675
26	0x0a	0.025041029
27	0x06	0.015024617
28	0xf0	-0.040065646
29	0xfd	-0.0075123087
30	0x0c	0.030049235
31	0xf4	-0.030049235
32	0xeb	-0.05258616
33	0xfd	-0.0075123087
34	0x06	0.015024617
35	0x0f	0.037561543
36	0xf5	-0.027545132
37	0x09	0.022536926
38	0x14	0.050082058
39	0x03	0.0075123087
40	0xe8	-0.06009847
41	0x1d	0.07261898
42	0xe4	-0.07011488
43	0xe8	-0.06009847
44	0x18	0.06009847
45	0xf4	-0.030049235
46	0x24	0.090147704
47	0xfd	-0.0075123087
48	0xf2	-0.03505744
49	0xf4	-0.030049235
50	0x2f	0.117692836
51	0x09	0.022536926
52	0x11	0.04256975
53	0xf4	-0.030049235
54	0x03	0.0075123087
55	0xeb	-0.05258616
56	0x04	0.010016412
57	0x06	0.015024617
58	0x02	0.005008206
59	0x14	0.050082058
60	0xfe	-0.005008206
61	0x0b	0.027545132
62	0xe4	-0.07011488
63	0xda	-0.09515591
64	0x04	0.010016412
65	0x31	0.12270104
66	0xfe	-0.005008206
67	0x0f	0.037561543
68	0x0c	0.030049235
69	0xee	-0.045073852
70	0x18	0.06009847
71	0xed	-0.047577955
72	0xf9	-0.01752872
73	0x08	0.020032823
74	0x27	0.09766001
75	0x10	0.040065646
76	0x15	0.05258616
77	0xd1	-0.117692836
78	0x0e	0.03505744
79	0xf9	-0.01752872
80	0xf4	-0.030049235
81	0x12	0.045073852
82	0x1b	0.06761078
83	0x23	0.0876436
84	0x0a	0.025041029
85	0xfa	-0.015024617
86	0xe8	-0.06009847
87	0xf2	-0.03505744
88	0xe0	-0.08013129
89	0x2f	0.117692836
90	0xec	-0.050082058
91	0x0d	0.032553338
92	0x20	0.08013129
93	0x01	0.002504103
94	0x2b	0.107676424
95	0xf9	-0.01752872
96	0xdb	-0.09265181
97	0xe8	-0.06009847
98	0x34	0.13021335
99	0xf3	-0.032553338
100	0x0c	0.030049235
101	0xff	-0.002504103
102	0xf4	-0.030049235
103	0x08	0.020032823
104	0xe0	-0.08013129
105	0x17	0.057594366
106	0xfc	-0.010016412
107	0x0b	0.027545132
108	0xf4	-0.030049235
109	0x18	0.06009847
110	0x0e	0.03505744
111	0xfa	-0.015024617
112	0xe5	-0.06761078
113	0x08	0.020032823
114	0xe0	-0.08013129
115	0xe9	-0.057594366
116	0x17	0.057594366
117	0x15	0.05258616
118	0x05	0.012520514
119	0xdd	-0.0876436
120	0xfb	-0.012520514
121	0x0f	0.037561543
122	0x0c	0.030049235
123	0x04	0.010016412
124	0x13	0.047577955
125	0xef	-0.04256975
126	0x0d	0.032553338
127	0xed	-0.047577955
128	0x08	0.020032823
129	0xfe	-0.005008206
130	0x14	0.050082058
131	0x0d	0.032553338
132	0xea	-0.055090263
133	0xee	-0.045073852
134	0xfc	-0.010016412
135	0xed	-0.047577955
136	0xe9	-0.057594366
137	0x34	0.13021335
138	0xff	-0.002504103
139	0x0a	0.025041029
140	0x0c	0.030049235
141	0xe6	-0.065106675
142	0x03	0.0075123087
143	0xf5	-0.027545132
144	0xeb	-0.05258616
145	0x05	0.012520514
146	0x32	0.12520514
147	0x15	0.05258616
148	0x0d	0.032553338
149	0xd0	-0.12019694
150	0xec	-0.050082058
151	0xf3	-0.032553338
152	0xdf	-0.082635395
153	0x16	0.055090263
154	0x26	0.09515591
155	0x34	0.13021335
156	0xf2	-0.03505744
157	0x0f	0.037561543
158	0xe3	-0.07261898
159	0xef	-0.04256975
160	0xde	-0.0851395
161	0x50	0.20032823
162	0xeb	-0.05258616
163	0xf9	-0.01752872
164	0x2b	0.107676424
165	0xe2	-0.07512309
166	0x2d	0.11268463
167	0x0a	0.025041029
168	0xfd	-0.0075123087
169	0xe9	-0.057594366
170	0x3b	0.14774206
171	0x0b	0.027545132
172	0x1c	0.07011488
173	0xee	-0.045073852
174	0xfa	-0.015024617
175	0xeb	-0.05258616
176	0x06	0.015024617
177	0x19	0.06260257
178	0x0c	0.030049235
179	0x48	0.18029541
180	0xee	-0.045073852
181	0x04	0.010016412
182	0x01	0.002504103
183	0xdf	-0.082635395
184	0xe0	-0.08013129
185	0x5e	0.23538567
186	0xc5	-0.14774206
187	0xf4	-0.030049235
188	0x24	0.090147704
189	0x06	0.015024617
190	0x28	0.100164115
191	0xe0	-0.08013129
192	0xeb	-0.05258616
193	0x0f	0.037561543
194	0x37	0.13772565
195	0x07	0.01752872
196	0x16	0.055090263
197	0xd2	-0.11518873
198	0xdd	-0.0876436
199	0xeb	-0.05258616
200	0xeb	-0.05258616
201	0x22	0.0851395
202	0x1c	0.07011488
203	0x34	0.13021335
204	0xe9	-0.057594366
205	0x0e	0.03505744
206	0x04	0.010016412
207	0xb6	-0.18530361
208	0xe7	-0.06260257
209	0x61	0.24289799
210	0xe3	-0.07261898
211	0xee	-0.045073852
212	0x26	0.09515591
213	0x01	0.002504103
214	0x3a	0.14523797
215	0xdc	-0.090147704
216	0xf4	-0.030049235
217	0xe9	-0.057594366
218	0x46	0.1752872
219	0xe4	-0.07011488
220	0x0f	0.037561543
221	0xde	-0.0851395
222	0xef	-0.04256975
223	0x13	0.047577955
224	0xe7	-0.06260257
225	0x1c	0.07011488
226	0x27	0.09766001
227	0x40	0.16026258
228	0xea	-0.055090263
229	0x16	0.055090263
230	0x03	0.0075123087
231	0xbc	-0.170279
232	0xec	-0.050082058
233	0x42	0.16527079
234	0xde	-0.0851395
235	0xff	-0.002504103
236	0x27	0.09766001
237	0xf3	-0.032553338
238	0x2e	0.11518873
239	0xda	-0.09515591
240	0xdd	-0.0876436
241	0xf1	-0.037561543
242	0x39	0.14273387
243	0x15	0.05258616
244	0x13	0.047577955
245	0xef	-0.04256975
246	0xe2	-0.07512309
247	0x10	0.040065646
248	0xe8	-0.06009847
249	0xf5	-0.027545132
250	0x12	0.045073852
251	0x35	0.13271746
252	0xfa	-0.015024617
253	0x09	0.022536926
254	0x11	0.04256975
255	0xfe	-0.005008206

Nvidia_Model/conv2d_1/Conv2D_bias f4 [36]
0	0x3c932562	0.017962161
1	0x3bc3da9c	0.005976988
2	0x3c9bf040	0.019035459
3	0x3c17da75	0.009268393
4	0xbbaf2b07	-0.0053457054
5	0x3bd50836	0.006501223
6	0xbb1c0305	-0.002380551
7	0x3ab95e11	0.0014142414
8	0x3b9e4194	0.004829595
9	0x3c2299be	0.00992435
10	0x3b04f524	0.0020287717
11	0xba7e225f	-0.0009694453
12	0xbb0c2471	-0.0021384025
13	0x3ade57ed	0.001696346
14	0x3c7d2fa9	0.015453258
15	0x3b85c77e	0.004082619
16	0xbb963735	-0.004584218
17	0x3b335ecd	0.0027369738
18	0x3b4cb41f	0.003123529
19	0x3b9e5162	0.004831479
20	0x3ba495ab	0.0050227246
21	0x3c8d84fa	0.017275322
22	0x3c05184c	0.008123469
23	0x3bb6331e	0.005560293
24	0x3ce01722	0.02735478
25	0x3c9cf50a	0.019159812
26	0x3c0356fe	0.008016346
27	0x3ba416ce	0.0050076013
28	0x3c2d1bd6	0.010565719
29	0x3be258bb	0.00690755
30	0x3bbfcc73	0.0058532297
31	0x3ca8c254	0.020600475
32	0xbb5563c0	-0.0032560676
33	0xbb8dc6be	-0.0043266704
34	0x3ce5295b	0.027973821
35	0x3c1ac1d5	0.009445627

Nvidia_Model/conv2d_2/Conv2D/ReadVariableOp i1 [48, 5, 5, 36] scale=0.0025274458 zero_point=0
0	0xe9	-0.05813125
1	0x0b	0.027801903
2	0xf5	-0.027801903
3	0x01	0.0025274458
4	0x08	0.020219566
5	0x01	0.0025274458
6	0xfc	-0.010109783
7	0x0b	0.027801903
8	0x0a	0.025274457
9	0xea	-0.055603806
10	0xfb	-0.012637229
11	0xf7	-0.022747012
12	0xfe	-0.0050548916
13	0xe4	-0.07076848
14	0xe5	-0.06824104
15	0xff	-0.0025274458
16	0xee	-0.045494024
17	0xec	-0.050548915
18	0xea	-0.055603806
19	0xf7	-0.022747012
20	0xff	-0.0025274458
21	0xfe	-0.0050548916
22	0x0a	0.025274457
23	0x00	0.0
24	0xff	-0.0025274458
25	0xf5	-0.027801903
26	0x06	0.015164675
27	0x09	0.022747012
28	0xf2	-0.03538424
29	0x01	0.0025274458
30	0xee	-0.045494024
31	0xf5	-0.027801903
32	0x11	0.04296658
33	0x06	0.015164675
34	0xec	-0.050548915
35	0xf0	-0.040439133
36	0xe8	-0.0606587
37	0xfa	-0.015164675
38	0xef	-0.04296658
39	0xed	-0.04802147
40	0xf7	-0.022747012
41	0x00	0.0
42	0xe7	-0.06318615
43	0xe7	-0.06318615
44	0xed	-0.04802147
45	0x00	0.0
46	0xf7	-0.022747012
47	0xf5	-0.027801903
48	0xe7	-0.06318615
49	0x0a	0.025274457
50	0x08	0.020219566
51	0xed	-0.04802147
52	0xe9	-0.05813125
53	0x0e	0.03538424
54	0x07	0.01769212
55	0x11	0.04296658
56	0x02	0.0050548916
57	0xec	-0.050548915
58	0x07	0.01769212
59	0xec	-0.050548915
60	0x08	0.020219566
61	0xe7	-0.06318615
62	0xec	-0.050548915
63	0xee	-0.045494024
64	0xfd	-0.0075823376
65	0xf3	-0.032856796
66	0xe7	-0.06318615
67	0xfe	-0.0050548916
68	0xf4	-0.03032935
69	0xec	-0.050548915
70	0xeb	-0.05307636
71	0x05	0.012637229
72	0xf4	-0.03032935
73	0x05	0.012637229
74	0xf7	-0.022747012
75	0xf1	-0.037911687
76	0x00	0.0
77	0xfb	-0.012637229
78	0xf7	-0.022747012
79	0xfc	-0.010109783
80	0xf4	-0.03032935
81	0x04	0.010109783
82	0xe2	-0.075823374
83	0xf7	-0.022747012
84	0xee	-0.045494024
85	0x04	0.010109783
86	0x04	0.010109783
87	0xf9	-0.01769212
88	0xe5	-0.06824104
89	0xfe	-0.0050548916
90	0x02	0.0050548916
91	0x0c	0.03032935
92	0x03	0.0075823376
93	0xfd	-0.0075823376
94	0x00	0.0
95	0xfa	-0.015164675
96	0x05	0.012637229
97	0xe9	-0.05813125
98	0x07	0.01769212
99	0xeb	-0.05307636
100	0xf4	-0.03032935
101	0xed	-0.04802147
102	0x09	0.022747012
103	0xdf	-0.08340571
104	0x10	0.040439133
105	0xe9	-0.05813125
106	0xf0	-0.040439133
107	0xf1	-0.037911687
108	0x06	0.015164675
109	0xef	-0.04296658
110	0x14	0.050548915
111	0x07	0.01769212
112	0xea	-0.055603806
113	0xef	-0.04296658
114	0x04	0.010109783
115	0xff	-0.0025274458
116	0xf1	-0.037911687
117	0x10	0.040439133
118	0x0b	0.027801903
119	0x09	0.022747012
120	0x04	0.010109783
121	0xe4	-0.07076848
122	0x05	0.012637229
123	0xeb	-0.05307636
124	0x0c	0.03032935
125	0xf3	-0.032856796
126	0x01	0.0025274458
127	0x08	0.020219566
128	0x01	0.0025274458
129	0x0d	0.032856796
130	0xff	-0.0025274458
131	0x14	0.050548915
132	0x0f	0.037911687
133	0x10	0.040439133
134	0x0e	0.03538424
135	0x06	0.015164675
136	0xfc	-0.010109783
137	0xf8	-0.020219566
138	0xf3	-0.032856796
139	0xfb	-0.012637229
140	0x14	0.050548915
141	0xf1	-0.037911687
142	0x01	0.0025274458
143	0x10	0.040439133
144	0xf5	-0.027801903
145	0xfa	-0.015164675
146	0x11	0.04296658
147	0xec	-0.050548915
148	0xfe	-0.0050548916
149	0x05	0.012637229
150	0xf6	-0.025274457
151	0xeb	-0.05307636
152	0xf6	-0.025274457
153	0x15	0.05307636
154	0xf4	-0.03032935
155	0xe6	-0.06571359
156	0x05	0.012637229
157	0xea	-0.055603806
158	0xf8	-0.020219566
159	0xfa	-0.015164675
160	0x05	0.012637229
161	0xfd	-0.0075823376
162	0x10	0.040439133
163	0x04	0.010109783
164	0x03	0.0075823376
165	0x16	0.055603806
166	0x0c	0.03032935
167	0x0a	0.025274457
168	0x01	0.0025274458
169	0x16	0.055603806
170	0xfa	-0.015164675
171	0xe7	-0.06318615
172	0xf4	-0.03032935
173	0xfa	-0.015164675
174	0xf0	-0.040439133
175	0xf2	-0.03538424
176	0x06	0.015164675
177	0x0b	0.027801903
178	0x10	0.040439133
179	0xf9	-0.01769212
180	0xf8	-0.020219566
181	0x20	0.080878265
182	0x03	0.0075823376
183	0x12	0.045494024
184	0x01	0.0025274458
185	0xfb	-0.012637229
186	0x04	0.010109783
187	0xf5	-0.027801903
188	0xfc	-0.010109783
189	0x0f	0.037911687
190	0x02	0.0050548916
191	0xe5	-0.06824104
192	0x13	0.04802147
193	0x02	0.0050548916
194	0x0b	0.027801903
195	0xfe	-0.0050548916
196	0x0a	0.025274457
197	0x15	0.05307636
198	0xf0	-0.040439133
199	0x01	0.0025274458
200	0xeb	-0.05307636
201	0x10	0.040439133
202	0xfe	-0.0050548916
203	0x07	0.01769212
204	0x07	0.01769212
205	0x24	0.09098805
206	0x05	0.012637229
207	0xe4	-0.07076848
208	0x14	0.050548915
209	0xfa	-0.015164675
210	0xf4	-0.03032935
211	0x16	0.055603806
212	0xf4	-0.03032935
213	0xfd	-0.0075823376
214	0x06	0.015164675
215	0xfb	-0.012637229
216	0xfc	-0.010109783
217	0x17	0.05813125
218	0x1d	0.07329593
219	0xee	-0.045494024
220	0x09	0.022747012
221	0x09	0.022747012
222	0xf1	-0.037911687
223	0x06	0.015164675
224	0x03	0.0075823376
225	0x1c	0.07076848
226	0x0a	0.025274457
227	0xf9	-0.01769212
228	0x08	0.020219566
229	0xfc	-0.010109783
230	0x07	0.01769212
231	0xfa	-0.015164675
232	0x14	0.050548915
233	0x01	0.0025274458
234	0xf1	-0.037911687
235	0x03	0.0075823376
236	0x0b	0.027801903
237	0x09	0.022747012
238	0x0f	0.037911687
239	0x0e	0.03538424
240	0x1d	0.07329593
241	0x0d	0.032856796
242	0x12	0.045494024
243	0xfe	-0.0050548916
244	0xf3	-0.032856796
245	0x02	0.0050548916
246	0x05	0.012637229
247	0xf7	-0.022747012
248	0xf7	-0.022747012
249	0x11	0.04296658
250	0x05	0.012637229
251	0xfa	-0.015164675
252	0xfc	-0.010109783
253	0x11	0.04296658
254	0x16	0.055603806
255	0xed	-0.04802147

Nvidia_Model/conv2d_2/Conv2D_bias f4 [48]
0	0xbb825d68	-0.00397842
1	0x3c0c90e3	0.008579466
2	0x3cf46ebf	0.029837964
3	0xbbc0c47f	-0.005882799
4	0x3c4abc9a	0.012374068
5	0x3cac720c	0.021050476
6	0xbbc85a1f	-0.006114259
7	0xbc76e5c6	-0.015069431
8	0x3c86117a	0.016365755
9	0x3c801e8c	0.015639566
10	0x3c0a1171	0.00842701
11	0xbbd320c5	-0.0064431154
12	0x3c4f82c8	0.012665458
13	0xbc5198f3	-0.012792814
14	0x3c17c3d2	0.009262996
15	0xba8379b8	-0.0010030782
16	0xbaa13437	-0.0012298886
17	0x3c253c14	0.0100851245
18	0x3c361359	0.011113011
19	0x3d06a61e	0.032873265
20	0x3d146994	0.0362335
21	0x3bd1460f	0.0063865255
22	0xbc3b2cb0	-0.011424229
23	0xbb41cb68	-0.0029570702
24	0x3c75dfe7	0.015006996
25	0x3c6e57ab	0.014547269
26	0xbc5105c1	-0.0127577195
27	0x3d0d7138	0.034531802
28	0x3cfdaa40	0.03096497
29	0xbbcd3e68	-0.006263543
30	0x3b837cfe	0.004012703
31	0x3c74f716	0.014951488
32	0xbc108762	-0.00882134
33	0xba93e28a	-0.0011282724
34	0x3c644519	0.01393249
35	0x3ccf0b23	0.025273865
36	0x3cd7415b	0.026276281
37	0x3c883c14	0.01663021
38	0xbc6e7faa	-0.014556805
39	0x3c1efc11	0.009703652
40	0x3bfe6be8	0.0077643283
41	0x3c603b85	0.013686066
42	0x3bff794c	0.007796442
43	0x3a6ae017	0.00089597836
44	0x3bd3b7f5	0.0064611384
45	0x3c92567a	0.0178635
46	0x3c284204	0.010269646
47	0x3c847eeb	0.0161738

Nvidia_Model/conv2d_3/Conv2D/ReadVariableOp i1 [64, 3, 3, 48] scale=0.004357032 zero_point=0
0	0xdf	-0.14378205
1	0x15	0.091497675
2	0xec	-0.08714064
3	0xf5	-0.047927354
4	0x03	0.013071096
5	0xb0	-0.34856257
6	0xee	-0.07842658
7	0xf2	-0.060998447
8	0x06	0.026142191
9	0x18	0.104568765
10	0x10	0.06971251
11	0xe9	-0.10021174
12	0xfc	-0.017428128
13	0xe1	-0.135068
14	0xb6	-0.32242036
15	0xdb	-0.16121018
16	0xbd	-0.29192114
17	0x19	0.1089258
18	0x03	0.013071096
19	0xeb	-0.091497675
20	0xc0	-0.27885005
21	0xf5	-0.047927354
22	0xd5	-0.18735237
23	0xc4	-0.26142192
24	0x10	0.06971251
25	0xd6	-0.18299535
26	0xe0	-0.13942502
27	0xa8	-0.38341883
28	0xb3	-0.33549148
29	0xe0	-0.13942502
30	0xdf	-0.14378205
31	0x07	0.030499224
32	0x12	0.07842658
33	0xc8	-0.24399379
34	0xff	-0.004357032
35	0x8c	-0.50541574
36	0xb9	-0.30934927
37	0x09	0.03921329
38	0xee	-0.07842658
39	0x1a	0.11328283
40	0x17	0.10021174
41	0x0e	0.060998447
42	0x0d	0.056641415
43	0xfe	-0.008714064
44	0xec	-0.08714064
45	0xfa	-0.026142191
46	0xf9	-0.030499224
47	0x19	0.1089258
48	0xdf	-0.14378205
49	0x0b	0.047927354
50	0xfe	-0.008714064
51	0xfd	-0.013071096
52	0x0b	0.047927354
53	0xb2	-0.3398485
54	0x01	0.004357032
55	0x03	0.013071096
56	0x1e	0.13071096
57	0x1e	0.13071096
58	0x04	0.017428128
59	0xee	-0.07842658
60	0x0f	0.06535548
61	0xeb	-0.091497675
62	0xd9	-0.16992424
63	0xdd	-0.15249611
64	0xcd	-0.22220863
65	0x13	0.08278361
66	0xf7	-0.03921329
67	0xf4	-0.052284382
68	0xa5	-0.39648992
69	0xf6	-0.04357032
70	0xe1	-0.135068
71	0xd7	-0.17863831
72	0x10	0.06971251
73	0xe7	-0.1089258
74	0xe3	-0.12635393
75	0xc0	-0.27885005
76	0xe4	-0.121996894
77	0xf9	-0.030499224
78	0xfd	-0.013071096
79	0x07	0.030499224
80	0x1e	0.13071096
81	0xc7	-0.24835083
82	0x12	0.07842658
83	0xb1	-0.34420553
84	0xdd	-0.15249611
85	0x16	0.09585471
86	0x03	0.013071096
87	0x1d	0.12635393
88	0x22	0.14813909
89	0xfe	-0.008714064
90	0x18	0.104568765
91	0x0e	0.060998447
92	0xf1	-0.06535548
93	0x15	0.091497675
94	0xfd	-0.013071096
95	0x09	0.03921329
96	0xe3	-0.12635393
97	0x0b	0.047927354
98	0xf1	-0.06535548
99	0xf2	-0.060998447
100	0x18	0.104568765
101	0xcb	-0.2309227
102	0xfa	-0.026142191
103	0xf9	-0.030499224
104	0x05	0.02178516
105	0x0c	0.052284382
106	0x0d	0.056641415
107	0xe9	-0.10021174
108	0x0d	0.056641415
109	0xee	-0.07842658
110	0xdc	-0.15685315
111	0x00	0.0
112	0xde	-0.14813909
113	0x11	0.074069545
114	0xf6	-0.04357032
115	0xf0	-0.06971251
116	0xce	-0.2178516
117	0x08	0.034856256
118	0xfa	-0.026142191
119	0xd6	-0.18299535
120	0x0f	0.06535548
121	0xef	-0.074069545
122	0xf8	-0.034856256
123	0xda	-0.16556722
124	0xe3	-0.12635393
125	0xfa	-0.026142191
126	0xeb	-0.091497675
127	0xfe	-0.008714064
128	0x16	0.09585471
129	0xdf	-0.14378205
130	0x13	0.08278361
131	0xd3	-0.19606644
132	0xee	-0.07842658
133	0x09	0.03921329
134	0xe5	-0.11763986
135	0x09	0.03921329
136	0x15	0.091497675
137	0x16	0.09585471
138	0x15	0.091497675
139	0x0f	0.06535548
140	0xd9	-0.16992424
141	0xff	-0.004357032
142	0x18	0.104568765
143	0xfc	-0.017428128
144	0xda	-0.16556722
145	0xf8	-0.034856256
146	0xd4	-0.19170941
147	0xfa	-0.026142191
148	0xe3	-0.12635393
149	0x2a	0.18299535
150	0xfe	-0.008714064
151	0xef	-0.074069545
152	0xfa	-0.026142191
153	0xee	-0.07842658
154	0xf4	-0.052284382
155	0xf8	-0.034856256
156	0xe8	-0.104568765
157	0xf9	-0.030499224
158	0x50	0.34856257
159	0xcc	-0.22656566
160	0x13	0.08278361
161	0xee	-0.07842658
162	0xf1	-0.06535548
163	0x18	0.104568765
164	0x4b	0.3267774
165	0xf7	-0.03921329
166	0xfb	-0.02178516
167	0x02	0.008714064
168	0xf6	-0.04357032
169	0xcf	-0.21349457
170	0xff	-0.004357032
171	0x1c	0.121996894
172	0x41	0.2832071
173	0xf6	-0.04357032
174	0xe9	-0.10021174
175	0xf6	-0.04357032
176	0xe7	-0.1089258
177	0x0d	0.056641415
178	0xe7	-0.1089258
179	0x2e	0.20042348
180	0x3b	0.25706488
181	0xfa	-0.026142191
182	0xec	-0.08714064
183	0xe8	-0.104568765
184	0xd5	-0.18735237
185	0xe3	-0.12635393
186	0xb8	-0.3137063
187	0xf1	-0.06535548
188	0xeb	-0.091497675
189	0xe6	-0.11328283
190	0xfe	-0.008714064
191	0xec	-0.08714064
192	0xf7	-0.03921329
193	0xeb	-0.091497675
194	0xd6	-0.18299535
195	0xf3	-0.056641415
196	0xed	-0.08278361
197	0x2e	0.20042348
198	0xea	-0.09585471
199	0x19	0.1089258
200	0x08	0.034856256
201	0xf7	-0.03921329
202	0xfe	-0.008714064
203	0x1e	0.13071096
204	0x05	0.02178516
205	0xfe	-0.008714064
206	0x34	0.22656566
207	0xf5	-0.047927354
208	0x2c	0.19170941
209	0xe4	-0.121996894
210	0xd1	-0.2047805
211	0x35	0.2309227
212	0x2a	0.18299535
213	0x15	0.091497675
214	0x09	0.03921329
215	0x22	0.14813909
216	0x03	0.013071096
217	0xc6	-0.25270787
218	0xe2	-0.13071096
219	0x33	0.22220863
220	0x44	0.29627818
221	0xfd	-0.013071096
222	0xe3	-0.12635393
223	0xf6	-0.04357032
224	0xe0	-0.13942502
225	0x1e	0.13071096
226	0xf2	-0.060998447
227	0x4a	0.32242036
228	0x41	0.2832071
229	0x0a	0.04357032
230	0xf7	-0.03921329
231	0xec	-0.08714064
232	0xf3	-0.056641415
233	0xeb	-0.091497675
234	0xee	-0.07842658
235	0xe3	-0.12635393
236	0xfd	-0.013071096
237	0xef	-0.074069545
238	0xfa	-0.026142191
239	0xee	-0.07842658
240	0xd3	-0.19606644
241	0x0d	0.056641415
242	0xe3	-0.12635393
243	0xd3	-0.19606644
244	0x11	0.074069545
245	0x39	0.24835083
246	0xeb	-0.091497675
247	0xfc	-0.017428128
248	0xf8	-0.034856256
249	0xf2	-0.060998447
250	0xf6	-0.04357032
251	0x0b	0.047927354
252	0x0f	0.06535548
253	0xcf	-0.21349457
254	0x45	0.30063522
255	0xdb	-0.16121018

Nvidia_Model/conv2d_3/Conv2D_bias f4 [64]
0	0x3ca21d1e	0.019789275
1	0x3c83d9a0	0.016094983
2	0x3c959771	0.01826069
3	0x3c5494c4	0.012974922
4	0x3cd91f37	0.026504142
5	0xbc02a72d	-0.007974428
6	0x3cca4575	0.024691323
7	0xbb8ab977	-0.004233535
8	0x3cb82b54	0.022481598
9	0xbc222c46	-0.009898251
10	0xbc181ba4	-0.009283934
11	0xbc6bbda1	-0.014388473
12	0x3cbfc84a	0.023410935
13	0x39ed0c92	0.00045213528
14	0x3c9b8f6f	0.018989293
15	0x3cce4a3c	0.025181882
16	0x3c7a837e	0.015290139
17	0x3cc4808f	0.023987083
18	0x3c95cdd8	0.01828663
19	0xbc258b6e	-0.010104043
20	0xbc72e946	-0.0148261245
21	0x3c0817bb	0.008306439
22	0xbc5752dd	-0.013142315
23	0xbc77639b	-0.015099431
24	0x3ca2a92a	0.019856054
25	0x3c753961	0.0149672935
26	0xbc405659	-0.011739337
27	0x3c6aee65	0.014339064
28	0xbbe42eae	-0.0069635725
29	0x3cd1ff0c	0.025634311
30	0xbb7fc07d	-0.0039024644
31	0x3c7d9b82	0.0154789705
32	0x3c9fccdc	0.019506864
33	0x3cb523b1	0.022111746
34	0x3c1a563e	0.009419976
35	0xbc7e16ae	-0.015508337
36	0x3c9ae191	0.018906387
37	0x3cb2b5da	0.02181523
38	0xbc4f6b17	-0.01265981
39	0x3ca75f79	0.020431267
40	0xbc3d3531	-0.011548326
41	0xbbb6e36b	-0.0055813096
42	0x3c59e3ac	0.01329891
43	0x3c894d88	0.016760603
44	0xbc2d039e	-0.010559944
45	0x3ca77690	0.020442277
46	0xbc692900	-0.014230967
47	0x3c0f16ca	0.008733461
48	0x3c1166e8	0.008874632
49	0x3c86d648	0.0164596
50	0xbc7fe56a	-0.015618661
51	0xbb97f11c	-0.004636897
52	0xbc4d5311	-0.012532012
53	0xbc14c57f	-0.00908029
54	0x3c98f24f	0.01867023
55	0x3cc47040	0.023979306
56	0xbc6c7020	-0.01443103
57	0x3cb30a7d	0.021855587
58	0xbbe55886	-0.006999078
59	0x3c97ddca	0.018538374
60	0xbb016e90	-0.0019749738
61	0xbc1bda0b	-0.009512435
62	0x3c75d063	0.015003297
63	0x3cca0c66	0.024664115

Nvidia_Model/conv2d_4/Conv2D/ReadVariableOp i1 [64, 3, 3, 64] scale=0.003315152 zero_point=0
0	0x14	0.06630304
1	0x07	0.023206063
2	0xf4	-0.039781824
3	0xfe	-0.006630304
4	0x07	0.023206063
5	0xee	-0.059672736
6	0xfd	-0.009945456
7	0x08	0.026521215
8	0x06	0.019890912
9	0x0d	0.043096974
10	0x06	0.019890912
11	0xf3	-0.043096974
12	0x14	0.06630304
13	0xf0	-0.05304243
14	0xeb	-0.06961819
15	0x05	0.01657576
16	0x04	0.013260608
17	0xef	-0.05635758
18	0xf4	-0.039781824
19	0xf8	-0.026521215
20	0x11	0.05635758
21	0xfa	-0.019890912
22	0xf5	-0.03646667
23	0xfd	-0.009945456
24	0xfb	-0.01657576
25	0x02	0.006630304
26	0xf6	-0.03315152
27	0xfa	-0.019890912
28	0xff	-0.003315152
29	0xec	-0.06630304
30	0x01	0.003315152
31	0xf0	-0.05304243
32	0x07	0.023206063
33	0xfd	-0.009945456
34	0xe6	-0.08619395
35	0xf9	-0.023206063
36	0x03	0.009945456
37	0x0e	0.046412125
38	0xf0	-0.05304243
39	0xf5	-0.03646667
40	0x07	0.023206063
41	0xfc	-0.013260608
42	0xf5	-0.03646667
43	0xfe	-0.006630304
44	0x15	0.06961819
45	0xfc	-0.013260608
46	0xfd	-0.009945456
47	0x0d	0.043096974
48	0xfb	-0.01657576
49	0xf4	-0.039781824
50	0x03	0.009945456
51	0xef	-0.05635758
52	0x06	0.019890912
53	0x10	0.05304243
54	0x11	0.05635758
55	0x0c	0.039781824
56	0x18	0.07956365
57	0x14	0.06630304
58	0x12	0.059672736
59	0x03	0.009945456
60	0xfb	-0.01657576
61	0xf9	-0.023206063
62	0x06	0.019890912
63	0xf0	-0.05304243
64	0x07	0.023206063
65	0xf8	-0.026521215
66	0x08	0.026521215
67	0xf8	-0.026521215
68	0xf4	-0.039781824
69	0x12	0.059672736
70	0xe7	-0.0828788
71	0x01	0.003315152
72	0xf7	-0.029836368
73	0x0b	0.03646667
74	0xf8	-0.026521215
75	0x07	0.023206063
76	0x01	0.003315152
77	0xf5	-0.03646667
78	0x0e	0.046412125
79	0x12	0.059672736
80	0x0a	0.03315152
81	0x00	0.0
82	0xed	-0.06298789
83	0xf5	-0.03646667
84	0x06	0.019890912
85	0x0c	0.039781824
86	0x0f	0.04972728
87	0xec	-0.06630304
88	0x10	0.05304243
89	0xf8	-0.026521215
90	0x0b	0.03646667
91	0xef	-0.05635758
92	0xf1	-0.04972728
93	0x0b	0.03646667
94	0xf4	-0.039781824
95	0xf1	-0.04972728
96	0x13	0.06298789
97	0xf7	-0.029836368
98	0xf3	-0.043096974
99	0x04	0.013260608
100	0x04	0.013260608
101	0xf1	-0.04972728
102	0xf6	-0.03315152
103	0x02	0.006630304
104	0x09	0.029836368
105	0x15	0.06961819
106	0xfe	-0.006630304
107	0xe7	-0.0828788
108	0x07	0.023206063
109	0x0d	0.043096974
110	0xed	-0.06298789
111	0xee	-0.059672736
112	0x00	0.0
113	0xe7	-0.0828788
114	0xfc	-0.013260608
115	0x01	0.003315152
116	0x02	0.006630304
117	0x03	0.009945456
118	0x0a	0.03315152
119	0xec	-0.06630304
120	0xf3	-0.043096974
121	0x07	0.023206063
122	0x16	0.07293334
123	0xf9	-0.023206063
124	0xf7	-0.029836368
125	0xf9	-0.023206063
126	0xf8	-0.026521215
127	0x05	0.01657576
128	0xfc	-0.013260608
129	0x10	0.05304243
130	0x04	0.013260608
131	0xf4	-0.039781824
132	0x07	0.023206063
133	0x03	0.009945456
134	0xfc	-0.013260608
135	0xf0	-0.05304243
136	0x07	0.023206063
137	0x01	0.003315152
138	0x10	0.05304243
139	0xef	-0.05635758
140	0x01	0.003315152
141	0xf5	-0.03646667
142	0xf2	-0.046412125
143	0xf1	-0.04972728
144	0xed	-0.06298789
145	0x08	0.026521215
146	0x0b	0.03646667
147	0x14	0.06630304
148	0x0f	0.04972728
149	0xf5	-0.03646667
150	0x02	0.006630304
151	0x08	0.026521215
152	0x05	0.01657576
153	0xe9	-0.0762485
154	0x0a	0.03315152
155	0x0a	0.03315152
156	0xe9	-0.0762485
157	0xfe	-0.006630304
158	0xf0	-0.05304243
159	0x13	0.06298789
160	0x05	0.01657576
161	0xfb	-0.01657576
162	0x0f	0.04972728
163	0xff	-0.003315152
164	0xe8	-0.07956365
165	0xee	-0.059672736
166	0x00	0.0
167	0x0b	0.03646667
168	0x05	0.01657576
169	0x09	0.029836368
170	0xff	-0.003315152
171	0xf2	-0.046412125
172	0x10	0.05304243
173	0xec	-0.06630304
174	0x13	0.06298789
175	0xf6	-0.03315152
176	0x0a	0.03315152
177	0x05	0.01657576
178	0x00	0.0
179	0x04	0.013260608
180	0x0c	0.039781824
181	0x12	0.059672736
182	0x05	0.01657576
183	0x0d	0.043096974
184	0x04	0.013260608
185	0xfa	-0.019890912
186	0xf7	-0.029836368
187	0x0b	0.03646667
188	0x00	0.0
189	0x16	0.07293334
190	0xf0	-0.05304243
191	0x03	0.009945456
192	0xfe	-0.006630304
193	0x05	0.01657576
194	0xf2	-0.046412125
195	0xe8	-0.07956365
196	0x07	0.023206063
197	0xed	-0.06298789
198	0x08	0.026521215
199	0x03	0.009945456
200	0xf9	-0.023206063
201	0x17	0.0762485
202	0x18	0.07956365
203	0x08	0.026521215
204	0xea	-0.07293334
205	0x03	0.009945456
206	0xed	-0.06298789
207	0xf2	-0.046412125
208	0x08	0.026521215
209	0xe8	-0.07956365
210	0x06	0.019890912
211	0xfa	-0.019890912
212	0xf8	-0.026521215
213	0x14	0.06630304
214	0xef	-0.05635758
215	0xf1	-0.04972728
216	0xed	-0.06298789
217	0xf5	-0.03646667
218	0x11	0.05635758
219	0x13	0.06298789
220	0xeb	-0.06961819
221	0xed	-0.06298789
222	0xf0	-0.05304243
223	0xf5	-0.03646667
224	0xef	-0.05635758
225	0xf7	-0.029836368
226	0xeb	-0.06961819
227	0x14	0.06630304
228	0xfd	-0.009945456
229	0x0a	0.03315152
230	0xf0	-0.05304243
231	0xe7	-0.0828788
232	0xef	-0.05635758
233	0x0c	0.039781824
234	0x0b	0.03646667
235	0xfc	-0.013260608
236	0xf4	-0.039781824
237	0xfa	-0.019890912
238	0x08	0.026521215
239	0x07	0.023206063
240	0xf8	-0.026521215
241	0x07	0.023206063
242	0xed	-0.06298789
243	0x0c	0.039781824
244	0xf6	-0.03315152
245	0x14	0.06630304
246	0xf7	-0.029836368
247	0xf8	-0.026521215
248	0x03	0.009945456
249	0xf6	-0.03315152
250	0xfa	-0.019890912
251	0x09	0.029836368
252	0x0b	0.03646667
253	0xf7	-0.029836368
254	0x0f	0.04972728
255	0xfb	-0.01657576

Nvidia_Model/conv2d_4/Conv2D_bias f4 [64]
0	0xbc41e085	-0.011833315
1	0xbc63b59d	-0.01389828
2	0x3cc6e546	0.024279248
3	0xbc09cede	-0.008411137
4	0xbc120c29	-0.008914032
5	0x3c85608e	0.016281392
6	0xbbf397d1	-0.0074338694
7	0xbbead4c1	-0.0071664755
8	0xbc287f6b	-0.010284285
9	0xbc5f7309	-0.013638266
10	0xbc028ac0	-0.007967651
11	0x3cc6eb67	0.02428217
12	0x3cc975cf	0.024592308
13	0xbc06ac88	-0.008219846
14	0x3c432076	0.011909595
15	0xbba0f59c	-0.0049120914
16	0xbae47444	-0.0017429669
17	0x3b203bbf	0.0024449674
18	0x3c9029dc	0.017598085
19	0xbc6c028b	-0.014404903
20	0xbc05a76e	-0.008157594
21	0xbc199403	-0.009373668
22	0xbc3842e8	-0.01124642
23	0x3d0411d3	0.03224356
24	0x3cf31852	0.029674683
25	0x3b1fbcc5	0.002437399
26	0x3cd8d9d7	0.026471062
27	0xbc38e16e	-0.011284215
28	0x3cf8c925	0.03036935
29	0x3d041401	0.03224564
30	0xbc449696	-0.011998793
31	0xbc33fa3d	-0.010984954
32	0xbaf67804	-0.0018804078
33	0x3cf912d8	0.030404493
34	0x3cbf52eb	0.023354968
35	0x3ca77819	0.02044301
36	0xbbb54405	-0.00553179
37	0xbc21bc63	-0.009871575
38	0x3c9b70a5	0.018974612
39	0xbbda0831	-0.0066538085
40	0xbc02a7e5	-0.0079745995
41	0x3cd3d450	0.025858074
42	0x3ccd9e6e	0.02509996
43	0x3c97a9ec	0.018513642
44	0xbc410805	-0.011781697
45	0xbc109fdc	-0.008827176
46	0x3cf5caba	0.030003894
47	0x3a1846e4	0.00058089034
48	0x3d054c16	0.032543264
49	0x3b8c9fc5	0.004291507
50	0x3cf24a7c	0.029576533
51	0x3d02b8f2	0.03191466
52	0xbc032d12	-0.008006351
53	0xbc02d99a	-0.007986451
54	0x3cfde7b8	0.030994281
55	0xbcea5d11	-0.02860883
56	0x3c852bcc	0.016256236
57	0xbbd63706	-0.006537321
58	0x3ce1a3cc	0.027543925
59	0x3d021296	0.031756006
60	0xbb4d7bf7	-0.0031354406
61	0xbc0efdf3	-0.008727538
62	0x3ceed2ac	0.02915319
63	0xbc157455	-0.009121974

Nvidia_Model/dense/MatMul/ReadVariableOp/transpose i1 [100, 1152] scale=0.0027689135 zero_point=0
0	0xfb	-0.013844567
1	0xb8	-0.19936177
2	0xea	-0.060916096
3	0x0e	0.03876479
4	0xdd	-0.096911974
5	0xea	-0.060916096
6	0xe5	-0.07476067
7	0x22	0.09414306
8	0xe5	-0.07476067
9	0x03	0.008306741
10	0xfb	-0.013844567
11	0xfc	-0.011075654
12	0x06	0.016613482
13	0xf8	-0.022151308
14	0xdb	-0.1024498
15	0x19	0.06922284
16	0x06	0.016613482
17	0xf6	-0.027689135
18	0xca	-0.14952134
19	0xbd	-0.1855172
20	0xe6	-0.07199175
21	0xfd	-0.008306741
22	0x0b	0.030458048
23	0xe5	-0.07476067
24	0xf6	-0.027689135
25	0xee	-0.049840443
26	0xe2	-0.0830674
27	0x02	0.005537827
28	0xfd	-0.008306741
29	0xd9	-0.10798763
30	0xf0	-0.044302616
31	0xfb	-0.013844567
32	0xe2	-0.0830674
33	0xef	-0.04707153
34	0x08	0.022151308
35	0xd5	-0.11906328
36	0x0d	0.035995875
37	0xe9	-0.06368501
38	0xed	-0.052609358
39	0xfe	-0.005537827
40	0xeb	-0.058147185
41	0xd9	-0.10798763
42	0xdf	-0.091374144
43	0xdd	-0.096911974
44	0x1b	0.07476067
45	0xe4	-0.07752958
46	0xf1	-0.0415337
47	0xe0	-0.08860523
48	0x12	0.049840443
49	0xf7	-0.024920221
50	0xf4	-0.033226963
51	0xff	-0.0027689135
52	0xf3	-0.035995875
53	0xef	-0.04707153
54	0xed	-0.052609358
55	0xde	-0.09414306
56	0xdd	-0.096911974
57	0x0e	0.03876479
58	0xf5	-0.030458048
59	0x0b	0.030458048
60	0xf6	-0.027689135
61	0xfb	-0.013844567
62	0xff	-0.0027689135
63	0x0c	0.033226963
64	0x09	0.024920221
65	0x14	0.05537827
66	0x02	0.005537827
67	0xf2	-0.03876479
68	0xed	-0.052609358
69	0xec	-0.05537827
70	0xfa	-0.016613482
71	0x00	0.0
72	0x0d	0.035995875
73	0x03	0.008306741
74	0xea	-0.060916096
75	0x07	0.019382395
76	0x02	0.005537827
77	0x0a	0.027689135
78	0xdf	-0.091374144
79	0xfb	-0.013844567
80	0xfb	-0.013844567
81	0xe2	-0.0830674
82	0xde	-0.09414306
83	0x12	0.049840443
84	0xe0	-0.08860523
85	0xf0	-0.044302616
86	0x09	0.024920221
87	0xf0	-0.044302616
88	0xe7	-0.06922284
89	0xea	-0.060916096
90	0xe6	-0.07199175
91	0x09	0.024920221
92	0xe6	-0.07199175
93	0xeb	-0.058147185
94	0x03	0.008306741
95	0xe7	-0.06922284
96	0xf3	-0.035995875
97	0xdc	-0.099680886
98	0xf7	-0.024920221
99	0xed	-0.052609358
100	0x0b	0.030458048
101	0x0a	0.027689135
102	0xee	-0.049840443
103	0xe1	-0.08583632
104	0xe2	-0.0830674
105	0xe0	-0.08860523
106	0xe2	-0.0830674
107	0xe0	-0.08860523
108	0x20	0.08860523
109	0xec	-0.05537827
110	0x08	0.022151308
111	0x06	0.016613482
112	0xec	-0.05537827
113	0xe8	-0.066453926
114	0x08	0.022151308
115	0xdb	-0.1024498
116	0xfe	-0.005537827
117	0x00	0.0
118	0x0f	0.0415337
119	0xe7	-0.06922284
120	0xe6	-0.07199175
121	0xe6	-0.07199175
122	0xde	-0.09414306
123	0xfe	-0.005537827
124	0x0b	0.030458048
125	0x17	0.06368501
126	0xe3	-0.08029849
127	0x03	0.008306741
128	0xe2	-0.0830674
129	0x0b	0.030458048
130	0xff	-0.0027689135
131	0xe8	-0.066453926
132	0xf8	-0.022151308
133	0xfb	-0.013844567
134	0xf1	-0.0415337
135	0xfc	-0.011075654
136	0xf7	-0.024920221
137	0x12	0.049840443
138	0xde	-0.09414306
139	0x00	0.0
140	0xe7	-0.06922284
141	0x02	0.005537827
142	0xfe	-0.005537827
143	0xdb	-0.1024498
144	0xdf	-0.091374144
145	0xf4	-0.033226963
146	0x0b	0.030458048
147	0x07	0.019382395
148	0xfd	-0.008306741
149	0xd5	-0.11906328
150	0x00	0.0
151	0x07	0.019382395
152	0xe9	-0.06368501
153	0xfd	-0.008306741
154	0xf5	-0.030458048
155	0xe4	-0.07752958
156	0xf5	-0.030458048
157	0xe9	-0.06368501
158	0xfe	-0.005537827
159	0xe7	-0.06922284
160	0xe4	-0.07752958
161	0xf2	-0.03876479
162	0xf8	-0.022151308
163	0xfd	-0.008306741
164	0x0d	0.035995875
165	0xe8	-0.066453926
166	0xee	-0.049840443
167	0xe2	-0.0830674
168	0xec	-0.05537827
169	0xf3	-0.035995875
170	0xec	-0.05537827
171	0x08	0.022151308
172	0xe9	-0.06368501
173	0xf9	-0.019382395
174	0xfa	-0.016613482
175	0xec	-0.05537827
176	0xee	-0.049840443
177	0xfb	-0.013844567
178	0xee	-0.049840443
179	0xfd	-0.008306741
180	0xff	-0.0027689135
181	0xfc	-0.011075654
182	0x06	0.016613482
183	0xe1	-0.08583632
184	0xed	-0.052609358
185	0xdc	-0.099680886
186	0xf8	-0.022151308
187	0xf3	-0.035995875
188	0xfb	-0.013844567
189	0xef	-0.04707153
190	0xf8	-0.022151308
191	0xf2	-0.03876479
192	0xde	-0.09414306
193	0x00	0.0
194	0xf5	-0.030458048
195	0xf3	-0.035995875
196	0x29	0.11352546
197	0xfe	-0.005537827
198	0xdf	-0.091374144
199	0xf2	-0.03876479
200	0xec	-0.05537827
201	0xff	-0.0027689135
202	0xf7	-0.024920221
203	0xfd	-0.008306741
204	0xe2	-0.0830674
205	0x08	0.022151308
206	0x03	0.008306741
207	0xf0	-0.044302616
208	0x06	0.016613482
209	0xe2	-0.0830674
210	0x01	0.0027689135
211	0xe3	-0.08029849
212	0x0d	0.035995875
213	0xdf	-0.091374144
214	0xe0	-0.08860523
215	0x12	0.049840443
216	0x07	0.019382395
217	0xe7	-0.06922284
218	0xfd	-0.008306741
219	0xdd	-0.096911974
220	0xf9	-0.019382395
221	0xfd	-0.008306741
222	0xe7	-0.06922284
223	0x0e	0.03876479
224	0xf4	-0.033226963
225	0xfd	-0.008306741
226	0xe2	-0.0830674
227	0x07	0.019382395
228	0xe6	-0.07199175
229	0x02	0.005537827
230	0xed	-0.052609358
231	0xfd	-0.008306741
232	0xe7	-0.06922284
233	0x05	0.013844567
234	0x0c	0.033226963
235	0x0a	0.027689135
236	0xfa	-0.016613482
237	0xf2	-0.03876479
238	0xf6	-0.027689135
239	0xec	-0.05537827
240	0x00	0.0
241	0x0c	0.033226963
242	0xfa	-0.016613482
243	0xe4	-0.07752958
244	0xde	-0.09414306
245	0x11	0.04707153
246	0x00	0.0
247	0xe7	-0.06922284
248	0xfe	-0.005537827
249	0xe1	-0.08583632
250	0xed	-0.052609358
251	0x01	0.0027689135
252	0xf6	-0.027689135
253	0xed	-0.052609358
254	0xe4	-0.07752958
255	0x09	0.024920221

Nvidia_Model/dense/MatMul_bias f4 [100]
0	0x3cb079b6	0.021542411
1	0xbbfed3d6	-0.0077767177
2	0xbb9b8bea	-0.0047469037
3	0xbc1c6713	-0.009546059
4	0x3d112b5a	0.035441734
5	0xbc08a0e3	-0.00833914
6	0xbbf591b8	-0.0074941777
7	0x3d08518d	0.033280898
8	0xbbcab981	-0.0061866646
9	0x3d10310b	0.03520302
10	0x3cf485b1	0.029848905
11	0x3aeb9106	0.0017972298
12	0xbbc6ea92	-0.0060704434
13	0xbc05466c	-0.008134466
14	0x3cf1e7fa	0.02952956
15	0x3ceda947	0.029011382
16	0x3cb3ed7a	0.021963824
17	0xbc09c7c6	-0.008409446
18	0xbc09b43f	-0.00840479
19	0x3b87aab0	0.0041402206
20	0xbc11fd3d	-0.008910474
21	0x3b282ec6	0.0025662645
22	0x3d0a1106	0.03370764
23	0x3d03da24	0.032190457
24	0x3d0cfc30	0.034420192
25	0x3d154724	0.036444798
26	0xbc1c6b41	-0.009547056
27	0x3cf0bae7	0.029385997
28	0xbc204ca6	-0.009783899
29	0x3d19a92b	0.037514847
30	0x3b09344b	0.002093571
31	0xbc31d017	-0.010852835
32	0x3d0d3bce	0.034480862
33	0x3ca70a6d	0.020390714
34	0xbbec9c12	-0.0072207535
35	0xbbfc48b6	-0.0076990975
36	0x3c03cf49	0.008045026
37	0xbc0f3c2c	-0.008742373
38	0x3cd1cf1f	0.025611458
39	0xbb0f2b21	-0.0021845775
40	0x3c110c28	0.008852996
41	0x3c29cccd	0.01036377
42	0x3d0126df	0.03153121
43	0xbc10aac4	-0.008829776
44	0xbbe77c0f	-0.0070643495
45	0xbc1cc96b	-0.009569506
46	0x3d037b35	0.03209992
47	0x3bd011d0	0.0063497797
48	0x3c7c12ae	0.015385313
49	0x3cab98ee	0.020946946
50	0x3aa81cfa	0.0012826019
51	0x3cf43c18	0.029813811
52	0x3ce5c8db	0.028049877
53	0xbbef0590	-0.0072943643
54	0x3d068545	0.03284194
55	0xbc151eea	-0.009101609
56	0x3cf53f1a	0.029937316
57	0x3cef773c	0.02923166
58	0xbc12cfeb	-0.008960704
59	0xbbf7ea53	-0.0075657754
60	0xbc1377f7	-0.00900077
61	0xbc12a209	-0.008949765
62	0x3d189323	0.037249696
63	0x3b703bbb	0.0036656696
64	0xbc1ecab6	-0.009691885
65	0xbbf8d799	-0.0075940606
66	0xbc1fac67	-0.009745694
67	0xbc01b528	-0.007916726
68	0x3b33bd36	0.002742601
69	0xbbc40064	-0.005981492
70	0x3b4c6c0f	0.0031192338
71	0x3d0d2784	0.034461513
72	0x3d07eb1c	0.033183202
73	0xbbfeb24a	-0.0077727186
74	0xbc55c1e0	-0.013046712
75	0x3d06dbfc	0.032924637
76	0x3cbaeaa2	0.02281696
77	0xbc203698	-0.009778641
78	0x3cefe79a	0.02928524
79	0xbbe52fd9	-0.0069942293
80	0x3d0ace75	0.0338883
81	0xbbd81b12	-0.006595024
82	0x3cba1c96	0.022718709
83	0x3d0af218	0.033922285
84	0x3cefea08	0.0292864
85	0x3c130014	0.008972187
86	0x3d08ea1c	0.03342639
87	0x3cf667a3	0.030078715
88	0xbbfc63eb	-0.007702341
89	0x3cb460b0	0.02201876
90	0xbc0d109f	-0.00860992
91	0x3bea3600	0.0071475506
92	0x3ceac924	0.028660364
93	0xbbf1cdc0	-0.0073792636
94	0x3cebcf63	0.028785413
95	0xbc20bc07	-0.009810454
96	0xbc02d067	-0.007984257
97	0xbc036fc8	-0.008022256
98	0xbbf0e3df	-0.007351383
99	0xb90d0c2a	-0.0001345134

Nvidia_Model/dense_1/MatMul/ReadVariableOp/transpose i1 [50, 100] scale=0.0046330933 zero_point=0
0	0xef	-0.07876258
1	0x0c	0.05559712
2	0x06	0.02779856
3	0xf4	-0.05559712
4	0xdf	-0.15289208
5	0xef	-0.07876258
6	0xff	-0.0046330933
7	0x0f	0.0694964
8	0x18	0.11119424
9	0xe8	-0.11119424
10	0x29	0.18995683
11	0xfc	-0.018532373
12	0x01	0.0046330933
13	0xce	-0.23165466
14	0xdd	-0.16215827
15	0x1b	0.12509352
16	0x27	0.18069063
17	0xda	-0.17605755
18	0x00	0.0
19	0xec	-0.092661865
20	0xfd	-0.01389928
21	0xe4	-0.12972662
22	0x14	0.092661865
23	0xfa	-0.02779856
24	0x25	0.17142445
25	0x2b	0.19922301
26	0xea	-0.101928055
27	0xfd	-0.01389928
28	0xe9	-0.10656115
29	0xfa	-0.02779856
30	0x05	0.023165466
31	0xf0	-0.07412949
32	0x1c	0.12972662
33	0x1e	0.1389928
34	0xf0	-0.07412949
35	0xdf	-0.15289208
36	0xf8	-0.037064746
37	0xf1	-0.0694964
38	0x1a	0.12046042
39	0xed	-0.08802877
40	0xe4	-0.12972662
41	0x03	0.01389928
42	0x2a	0.19458991
43	0xfa	-0.02779856
44	0xf0	-0.07412949
45	0xf9	-0.032431655
46	0xeb	-0.09729496
47	0xde	-0.15752517
48	0xfe	-0.0092661865
49	0x11	0.07876258
50	0xd0	-0.22238848
51	0xe0	-0.14825898
52	0xf9	-0.032431655
53	0x1e	0.1389928
54	0xf5	-0.050964028
55	0xed	-0.08802877
56	0x2d	0.2084892
57	0x13	0.08802877
58	0xdd	-0.16215827
59	0xce	-0.23165466
60	0xed	-0.08802877
61	0x0f	0.0694964
62	0xda	-0.17605755
63	0xe1	-0.14362589
64	0xd5	-0.19922301
65	0x1f	0.14362589
66	0x14	0.092661865
67	0xcf	-0.22702157
68	0xdb	-0.17142445
69	0x19	0.11582733
70	0xef	-0.07876258
71	0x1f	0.14362589
72	0x1d	0.1343597
73	0xdd	-0.16215827
74	0xf7	-0.041697837
75	0x1a	0.12046042
76	0x13	0.08802877
77	0x1f	0.14362589
78	0x0e	0.06486331
79	0xf9	-0.032431655
80	0xe6	-0.12046042
81	0xf4	-0.05559712
82	0x27	0.18069063
83	0x0c	0.05559712
84	0x0b	0.050964028
85	0xed	-0.08802877
86	0x0e	0.06486331
87	0x02	0.0092661865
88	0x00	0.0
89	0x06	0.02779856
90	0xe6	-0.12046042
91	0x06	0.02779856
92	0x25	0.17142445
93	0x22	0.15752517
94	0xf2	-0.06486331
95	0xd6	-0.19458991
96	0xd2	-0.2131223
97	0xd6	-0.19458991
98	0xf7	-0.041697837
99	0xd8	-0.18532373
100	0xf2	-0.06486331
101	0xd9	-0.18069063
102	0xf2	-0.06486331
103	0x01	0.0046330933
104	0xf9	-0.032431655
105	0xdc	-0.16679135
106	0xdc	-0.16679135
107	0x06	0.02779856
108	0xfb	-0.023165466
109	0xed	-0.08802877
110	0x29	0.18995683
111	0xec	-0.092661865
112	0xf1	-0.0694964
113	0x0c	0.05559712
114	0xe7	-0.11582733
115	0xf5	-0.050964028
116	0x10	0.07412949
117	0x05	0.023165466
118	0x06	0.02779856
119	0x16	0.101928055
120	0xe4	-0.12972662
121	0x16	0.101928055
122	0xf4	-0.05559712
123	0xe2	-0.1389928
124	0x06	0.02779856
125	0x0a	0.046330933
126	0xe9	-0.10656115
127	0xe3	-0.1343597
128	0x08	0.037064746
129	0x04	0.018532373
130	0xe1	-0.14362589
131	0x0a	0.046330933
132	0xd9	-0.18069063
133	0x0e	0.06486331
134	0xda	-0.17605755
135	0x16	0.101928055
136	0x0f	0.0694964
137	0xe3	-0.1343597
138	0xf2	-0.06486331
139	0xd8	-0.18532373
140	0x04	0.018532373
141	0x12	0.083395675
142	0x27	0.18069063
143	0x1f	0.14362589
144	0xed	-0.08802877
145	0x10	0.07412949
146	0xf9	-0.032431655
147	0xdb	-0.17142445
148	0x02	0.0092661865
149	0xee	-0.083395675
150	0x23	0.16215827
151	0x0e	0.06486331
152	0xf8	-0.037064746
153	0xec	-0.092661865
154	0xe1	-0.14362589
155	0x12	0.083395675
156	0xfa	-0.02779856
157	0xf0	-0.07412949
158	0xeb	-0.09729496
159	0x01	0.0046330933
160	0x20	0.14825898
161	0x20	0.14825898
162	0x15	0.09729496
163	0x10	0.07412949
164	0xd7	-0.18995683
165	0xfc	-0.018532373
166	0x06	0.02779856
167	0x14	0.092661865
168	0x0e	0.06486331
169	0x26	0.17605755
170	0xd5	-0.19922301
171	0xfb	-0.023165466
172	0xe4	-0.12972662
173	0x20	0.14825898
174	0xf1	-0.0694964
175	0x09	0.041697837
176	0xfb	-0.023165466
177	0xe5	-0.12509352
178	0xe3	-0.1343597
179	0x1e	0.1389928
180	0x05	0.023165466
181	0x19	0.11582733
182	0xf0	-0.07412949
183	0x23	0.16215827
184	0x22	0.15752517
185	0x28	0.18532373
186	0xf2	-0.06486331
187	0xf1	-0.0694964
188	0x25	0.17142445
189	0x11	0.07876258
190	0x10	0.07412949
191	0xf6	-0.046330933
192	0xe7	-0.11582733
193	0x0c	0.05559712
194	0xea	-0.101928055
195	0x1d	0.1343597
196	0xff	-0.0046330933
197	0xfb	-0.023165466
198	0x04	0.018532373
199	0x07	0.032431655
200	0xeb	-0.09729496
201	0x03	0.01389928
202	0xe3	-0.1343597
203	0xfc	-0.018532373
204	0x0a	0.046330933
205	0xd0	-0.22238848
206	0x1f	0.14362589
207	0x2c	0.20385611
208	0xee	-0.083395675
209	0x1b	0.12509352
210	0xfe	-0.0092661865
211	0x09	0.041697837
212	0xd7	-0.18995683
213	0xdc	-0.16679135
214	0x28	0.18532373
215	0x10	0.07412949
216	0x27	0.18069063
217	0x0b	0.050964028
218	0x06	0.02779856
219	0x24	0.16679135
220	0x09	0.041697837
221	0xe0	-0.14825898
222	0x1b	0.12509352
223	0x22	0.15752517
224	0x24	0.16679135
225	0xf0	-0.07412949
226	0x22	0.15752517
227	0x02	0.0092661865
228	0xd6	-0.19458991
229	0x1a	0.12046042
230	0xf0	-0.07412949
231	0xdb	-0.17142445
232	0x25	0.17142445
233	0xff	-0.0046330933
234	0x17	0.10656115
235	0x07	0.032431655
236	0xef	-0.07876258
237	0x0f	0.0694964
238	0x02	0.0092661865
239	0xd3	-0.2084892
240	0x1c	0.12972662
241	0x20	0.14825898
242	0xf7	-0.041697837
243	0xd5	-0.19922301
244	0xf2	-0.06486331
245	0xf0	-0.07412949
246	0xf3	-0.06023021
247	0xeb	-0.09729496
248	0x17	0.10656115
249	0x25	0.17142445
250	0x01	0.0046330933
251	0x28	0.18532373
252	0x01	0.0046330933
253	0xd8	-0.18532373
254	0x2e	0.2131223
255	0x24	0.16679135

Nvidia_Model/dense_1/MatMul_bias f4 [50]
0	0x3d165fa4	0.036712304
1	0x3c09d963	0.008413645
2	0x3d023ea0	0.031798005
3	0xbc3dd891	-0.011587278
4	0xbc20b6d1	-0.009809212
5	0xbbe95817	-0.007121097
6	0x3d017795	0.031608183
7	0x3c425f5e	0.011863558
8	0x3cc2ffdc	0.023803644
9	0xbc89c2d6	-0.016816538
10	0x3d014fcb	0.031570237
11	0x3c970bf2	0.018438313
12	0x3cdd5b61	0.027021112
13	0xbce9e7b1	-0.028552862
14	0x3d0bdcbe	0.034146063
15	0x3d08c264	0.03338851
16	0x3d027045	0.03184535
17	0xbcbf00bc	-0.02331578
18	0x3cc276fa	0.023738373
19	0xbc96acec	-0.018393002
20	0xbc44fe4e	-0.012023522
21	0xbc6d1abb	-0.014471705
22	0x3d01c5dc	0.031682834
23	0xbbf44203	-0.0074541583
24	0x3cdee3a2	0.027208153
25	0xbb78af5c	-0.003794632
26	0xbc010b6e	-0.00787626
27	0xbc1259f9	-0.008932584
28	0x3c1066b5	0.00881355
29	0xbc583d77	-0.013198248
30	0x3be7ddcc	0.007076001
31	0x3cfa7b5c	0.0305764
32	0xbcc0f323	-0.023553437
33	0xbc139a1b	-0.00900891
34	0x3d09b779	0.03362224
35	0x3bd2ca07	0.006432775
36	0xbbf2ea9a	-0.0074132206
37	0x3c18b46b	0.009320359
38	0x3cae1011	0.021247895
39	0x3d0cc4ad	0.034367252
40	0xbbd59b94	-0.0065187905
41	0x3cdaf8a7	0.026729895
42	0xbc12df6f	-0.0089644035
43	0xbb9832f1	-0.0046447446
44	0xbc771506	-0.015080696
45	0x3d084241	0.03326631
46	0x3d04853c	0.032353625
47	0x3d06aa9c	0.03287755
48	0xbc37a710	-0.011209264
49	0x3d055c66	0.03255882
