models/street.tflite (tflite, 266056 bytes, 9 tensors)

Nvidia_Model/conv2d/Conv2D/ReadVariableOp i1 [24, 5, 5, 3]
000000 eb 29 a5 c7 84 fe e4 c2 10 fb b3 b4 d9 d3 01 6c
       -21 41 -91 -57 -124 -2 -28 -62 16 -5 -77 -76 -39 -45 1 108
000010 ed 4e 58 a1 dc cb 3a f8 1c 6b 55 0e c2 70 f5 f8
       -19 78 88 -95 -36 -53 58 -8 28 107 85 14 -62 112 -11 -8
000020 07 21 fd 56 ac a7 ff 17 ab 99 15 a2 e6 42 d3 eb
       7 33 -3 86 -84 -89 -1 23 -85 -103 21 -94 -26 66 -45 -21
000030 18 9c 9b 43 56 30 24 3e e8 ad e6 0f 81 f6 0c 43
       24 -100 -101 67 86 48 36 62 -24 -83 -26 15 -127 -10 12 67
000040 a7 0c 0d c5 84 3b 90 62 e7 04 f7 5a 0e da 6f d3
       -89 12 13 -59 -124 59 -112 98 -25 4 -9 90 14 -38 111 -45
000050 a6 99 de f4 8f 3c 18 3c a8 c0 b1 40 b1 d0 d0 81
       -90 -103 -34 -12 -113 60 24 60 -88 -64 -79 64 -79 -48 -48 -127
000060 58 6b ca 71 52 b7 ea 91 4e ea 76 8b a4 6a 3a 0b
       88 107 -54 113 82 -73 -22 -111 78 -22 118 -117 -92 106 58 11
000070 3a 1e 9c 86 de fb 43 62 7d fc 66 71 0d 81 9d 17
       58 30 -100 -122 -34 -5 67 98 125 -4 102 113 13 -127 -99 23
000080 ce 6b 81 e4 b5 be 9c 5c 14 e4 83 95 33 a0 70 4a
       -50 107 -127 -28 -75 -66 -100 92 20 -28 -125 -107 51 -96 112 74
000090 0a 95 94 1c 25 02 6a 59 b4 f0 2c 4b 28 48 57 dd
       10 -107 -108 28 37 2 106 89 -76 -16 44 75 40 72 87 -35
0000a0 fa 25 9b eb 40 db 5f 66 d5 d3 42 5e 73 c1 cf 4d
       -6 37 -101 -21 64 -37 95 102 -43 -45 66 94 115 -63 -49 77
0000b0 84 71 2c 26 d3 0d 71 ab d7 bb c5 13 81 f4 15 12
       -124 113 44 38 -45 13 113 -85 -41 -69 -59 19 -127 -12 21 18
0000c0 1e cb c4 de 90 a6 50 cd 0c 2e 0c 8f a2 88 ee 75
       30 -53 -60 -34 -112 -90 80 -51 12 46 12 -113 -94 -120 -18 117
0000d0 3e 9f 24 93 ac 22 25 59 8a 88 5a ad 8a 95 bc 17
       62 -97 36 -109 -84 34 37 89 -118 -120 90 -83 -118 -107 -68 23
0000e0 1c 8c 41 b7 ad 9a 9e 30 05 5f 68 0a 43 e5 a5 81
       28 -116 65 -73 -83 -102 -98 48 5 95 104 10 67 -27 -91 -127
0000f0 4e 56 04 83 24 ad 71 c6 3d 54 e7 97 0f 0f ee ba
       78 86 4 -125 36 -83 113 -58 61 84 -25 -105 15 15 -18 -70

Nvidia_Model/conv2d_1/Conv2D/ReadVariableOp i1 [36, 5, 5, 24]
000000 43 b6 1c fb 21 ca 17 fb b6 e6 60 55 a2 f1 dc ee
       67 -74 28 -5 33 -54 23 -5 -74 -26 96 85 -94 -15 -36 -18
000010 2f 04 b2 f2 d8 35 d0 01 bd 9b 9a a2 fc 0f d0 61
       47 4 -78 -14 -40 53 -48 1 -67 -101 -102 -94 -4 15 -48 97
000020 e3 c7 f8 db 0f 04 08 09 eb 45 d0 ac a8 9e 4e 52
       -29 -57 -8 -37 15 4 8 9 -21 69 -48 -84 -88 -98 78 82
000030 04 35 ea bd 64 b7 e1 63 16 d0 b2 cf f9 24 af 24
       4 53 -22 -67 100 -73 -31 99 22 -48 -78 -49 -7 36 -81 36
000040 e6 b2 4a d2 00 28 b2 01 b3 17 38 b2 60 3a 2d 7f
       -26 -78 74 -46 0 40 -78 1 -77 23 56 -78 96 58 45 127
000050 e5 95 1b 3e 94 38 f7 54 4e 16 3b f2 00 0d 1d a2
       -27 -107 27 62 -108 56 -9 84 78 22 59 -14 0 13 29 -94
000060 af ce e8 93 b1 c6 be 08 50 bf c1 57 03 df ad 11
       -81 -50 -24 -109 -79 -58 -66 8 80 -65 -63 87 3 -33 -83 17
000070 ef cb d0 d3 ad 35 54 f6 11 d6 ae db 69 15 1e 10
       -17 -53 -48 -45 -83 53 84 -10 17 -42 -82 -37 105 21 30 16
000080 37 5e d2 b2 52 5f 5f 11 19 d2 8e 2c 17 44 ae 06
       55 94 -46 -78 82 95 95 17 25 -46 -114 44 23 68 -82 6
000090 15 23 12 24 00 09 49 ef 12 33 cd 9c d1 1a 1d 9c
       21 35 18 36 0 9 73 -17 18 51 -51 -100 -47 26 29 -100
0000a0 69 21 1b 94 18 d5 af 1e 1e 0c 24 0d 24 17 d8 d2
       105 33 27 -108 24 -43 -81 30 30 12 36 13 36 23 -40 -46
0000b0 63 16 03 56 ad 43 2d ef b6 0b ea 25 b8 b4 60 3c
       99 22 3 86 -83 67 45 -17 -74 11 -22 37 -72 -76 96 60
0000c0 38 0d 39 b5 5e ec e2 f9 43 de 6d aa 1e 30 25 4b
       56 13 57 -75 94 -20 -30 -7 67 -34 109 -86 30 48 37 75
0000d0 d6 a6 ed 08 f6 17 3a 4d f3 23 05 1b fe b7 ec 60
       -42 -90 -19 8 -10 23 58 77 -13 35 5 27 -2 -73 -20 96
0000e0 b2 1f 39 c3 33 41 43 43 f2 c5 d5 ae a4 df 4a a2
       -78 31 57 -61 51 65 67 67 -14 -59 -43 -82 -92 -33 74 -94
0000f0 0f 3a fc 45 66 2a 1c 11 43 52 fd 0a f3 49 2b 9f
       15 58 -4 69 102 42 28 17 67 82 -3 10 -13 73 43 -97

Nvidia_Model/conv2d_2/Conv2D/ReadVariableOp i1 [48, 5, 5, 36]
000000 90 08 ab c5 c2 45 27 e9 51 df c3 0c af 44 2a 21
       -112 8 -85 -59 -62 69 39 -23 81 -33 -61 12 -81 68 42 33
000010 a3 be c9 a6 b9 21 2b 29 de 19 0e 94 f4 a8 87 1b
       -93 -66 -55 -90 -71 33 43 41 -34 25 14 -108 -12 -88 -121 27
000020 15 36 4e 4e fd a2 ec 1d ec e9 c1 e0 3f b1 ca e9
       21 54 78 78 -3 -94 -20 29 -20 -23 -63 -32 63 -79 -54 -23
000030 ae e4 cc da 1a a7 aa ff 46 03 0b 26 34 12 d0 95
       -82 -28 -52 -38 26 -89 -86 -1 70 3 11 38 52 18 -48 -107
000040 a1 13 3c e6 d8 3a a1 24 f1 a1 0b 36 b4 bf fe 43
       -95 19 60 -26 -40 58 -95 36 -15 -95 11 54 -76 -65 -2 67
000050 bd a8 a1 fd 08 41 ad 8c f9 c9 4b 2e a0 b1 df 0d
       -67 -88 -95 -3 8 65 -83 -116 -7 -55 75 46 -96 -79 -33 13
000060 da cd e9 2e c1 4c 20 2e 27 e9 14 ef c3 15 bc 3d
       -38 -51 -23 46 -63 76 32 46 39 -23 20 -17 -61 21 -68 61
000070 f5 51 bf 4e b0 05 e0 42 5e db 13 8e ef b1 fe 26
       -11 81 -65 78 -80 5 -32 66 94 -37 19 -114 -17 -79 -2 38
000080 f8 f2 37 5f b5 c3 2b 3b 3b ad 8e e2 2e 44 29 d0
       -8 -14 55 95 -75 -61 43 59 59 -83 -114 -30 46 68 41 -48
000090 9a 34 a8 1b 46 ee 1e 1e 0a 09 24 18 0a 48 4a c7
       -102 52 -88 27 70 -18 30 30 10 9 36 24 10 72 74 -57
0000a0 05 0a 19 43 ae 09 4a 18 52 de 18 ab f3 d8 ee e6
       5 10 25 67 -82 9 74 24 82 -34 24 -85 -13 -40 -18 -26
0000b0 13 b5 ca a0 d8 04 c2 b3 bf 2e 29 0c ac 47 23 cf
       19 -75 -54 -96 -40 4 -62 -77 -65 46 41 12 -84 71 35 -49
0000c0 33 cb aa bd a5 1d 31 e1 cf 36 48 26 b9 c6 c4 0f
       51 -53 -86 -67 -91 29 49 -31 -49 54 72 38 -71 -58 -60 15
0000d0 b6 08 b8 e7 cb e8 bf 04 af 1c 37 ce 27 5c 28 c0
       -74 8 -72 -25 -53 -24 -65 4 -81 28 55 -50 39 92 40 -64
0000e0 b6 a5 eb 0b f9 46 a1 cb b0 e8 02 34 fb 35 e3 fd
       -74 -91 -21 11 -7 70 -95 -53 -80 -24 2 52 -5 53 -29 -3
0000f0 d5 8b e0 68 24 56 fa 05 3e 07 cd 50 28 c0 ed ce
       -43 -117 -32 104 36 86 -6 5 62 7 -51 80 40 -64 -19 -50

Nvidia_Model/conv2d_3/Conv2D/ReadVariableOp i1 [64, 3, 3, 48]
000000 99 21 b8 bc cc 89 a8 be 9d 96 db 4a 92 f8 6b 74
       -103 33 -72 -68 -52 -119 -88 -66 -99 -106 -37 74 -110 -8 107 116
000010 6c 0e 31 64 44 81 1c 3e 60 ef 0d 50 bb 5b 0f a1
       108 14 49 100 68 -127 28 62 96 -17 13 80 -69 91 15 -95
000020 cd b5 90 38 a0 1d f1 52 09 0c d4 9a 49 c2 4d 20
       -51 -75 -112 56 -96 29 -15 82 9 12 -44 -102 73 -62 77 32
000030 be 1c 39 04 18 9a 3f e8 51 dd 32 bc 9e fb da f1
       -66 28 57 4 24 -102 63 -24 81 -35 50 -68 -98 -5 -38 -15
000040 17 a9 d8 2f d1 c1 6c dc 13 95 31 96 0f 1d ce a5
       23 -87 -40 47 -47 -63 108 -36 19 -107 49 -106 15 29 -50 -91
000050 5a 40 b6 21 1c c4 3f b9 5d 63 8b f8 5e 1b 2b 4a
       90 64 -74 33 28 -60 63 -71 93 99 -117 -8 94 27 43 74
000060 48 ff 5b 2d cb 9d b6 4d 20 cb ab 99 bb 6a ee 97
       72 -1 91 45 -53 -99 -74 77 32 -53 -85 -103 -69 106 -18 -105
000070 8e 09 b3 ca 2c f8 1f 07 1c 61 b8 d9 f8 00 07 76
       -114 9 -77 -54 44 -8 31 7 28 97 -72 -39 -8 0 7 118
000080 19 5f e7 b3 6f 22 ba a6 bc 4c a8 55 f2 f9 e0 96
       25 95 -25 -77 111 34 -70 -90 -68 76 -88 85 -14 -7 -32 -106
000090 f6 a1 e7 06 a0 86 47 8e bf f7 c9 5c 70 8d 9b 95
       -10 -95 -25 6 -96 -122 71 -114 -65 -9 -55 92 112 -115 -101 -107
0000a0 8c ac ef 3e e0 6c b3 43 fc 0e 57 e5 d8 20 cd 21
       -116 -84 -17 62 -32 108 -77 67 -4 14 87 -27 -40 32 -51 33
0000b0 20 19 e5 b9 fc 9e f9 f0 fb 45 c7 00 fd 46 82 03
       32 25 -27 -71 -4 -98 -7 -16 -5 69 -57 0 -3 70 -126 3
0000c0 2f 9f e2 df fe d8 62 b2 0c fe ba 1f 11 e4 73 23
       47 -97 -30 -33 -2 -40 98 -78 12 -2 -70 31 17 -28 115 35
0000d0 e8 35 fb f7 83 de 04 51 36 70 11 75 48 2c d4 c5
       -24 53 -5 -9 -125 -34 4 81 54 112 17 117 72 44 -44 -59
0000e0 d4 12 18 98 5b c6 b2 74 9b c4 2c 59 a8 52 11 aa
       -44 18 24 -104 91 -58 -78 116 -101 -60 44 89 -88 82 17 -86
0000f0 74 2f 9a e4 0f 57 f6 f3 9a ab bf c8 ce 95 02 88
       116 47 -102 -28 15 87 -10 -13 -102 -85 -65 -56 -50 -107 2 -120

Nvidia_Model/conv2d_4/Conv2D/ReadVariableOp i1 [64, 3, 3, 64]
000000 58 a8 b8 63 a2 d1 3c 23 00 f8 93 bf cb 6e 5b ec
       88 -88 -72 99 -94 -47 60 35 0 -8 -109 -65 -53 110 91 -20
000010 e0 c0 3b 9f 35 8a da 8e 69 39 f1 6f a4 a7 cb 1d
       -32 -64 59 -97 53 -118 -38 -114 105 57 -15 111 -92 -89 -53 29
000020 9e 2a de 20 98 46 6d 92 41 52 87 21 42 0e 20 1a
       -98 42 -34 32 -104 70 109 -110 65 82 -121 33 66 14 32 26
000030 99 4b 82 67 9d e0 e0 b9 34 65 27 81 f8 25 1b f8
       -103 75 -126 103 -99 -32 -32 -71 52 101 39 -127 -8 37 27 -8
000040 fc 01 52 c0 39 ac 90 df 27 f8 74 09 27 de e4 d3
       -4 1 82 -64 57 -84 -112 -33 39 -8 116 9 39 -34 -28 -45
000050 cd ff a1 8e 5d a3 fe 1e 1d 4b d2 32 e9 1b e3 d9
       -51 -1 -95 -114 93 -93 -2 30 29 75 -46 50 -23 27 -29 -39
000060 f6 b9 aa f0 fb 40 ea 71 5f 29 bd 43 98 05 4c 2c
       -10 -71 -86 -16 -5 64 -22 113 95 41 -67 67 -104 5 76 44
000070 ec 44 fb d4 c8 3b 31 a0 5a 13 35 d2 30 90 9a fc
       -20 68 -5 -44 -56 59 49 -96 90 19 53 -46 48 -112 -102 -4
000080 bc 2d 1a de 41 b0 c9 c7 ef 03 f3 cc b0 af 50 23
       -68 45 26 -34 65 -80 -55 -57 -17 3 -13 -52 -80 -81 80 35
000090 8c 1c eb f2 34 34 48 c7 26 8f ac 8d b4 05 33 8b
       -116 28 -21 -14 52 52 72 -57 38 -113 -84 -115 -76 5 51 -117
0000a0 ff 8f 52 be 4c 54 36 c8 10 d8 a5 46 28 d8 d9 70
       -1 -113 82 -66 76 84 54 -56 16 -40 -91 70 40 -40 -39 112
0000b0 a6 a8 3f b3 ea 1d ab e1 ef fb f5 d4 50 e3 cb 55
       -90 -88 63 -77 -22 29 -85 -31 -17 -5 -11 -44 80 -29 -53 85
0000c0 59 fd c1 1e 0a ec bd ad 4e 51 55 a5 62 e0 86 67
       89 -3 -63 30 10 -20 -67 -83 78 81 85 -91 98 -32 -122 103
0000d0 46 f1 96 16 f9 69 31 2d 4e 59 94 28 28 39 58 5c
       70 -15 -106 22 -7 105 49 45 78 89 -108 40 40 57 88 92
0000e0 89 50 ed a8 a8 ec d5 db ff 55 8c 50 0d 8d ee c8
       -119 80 -19 -88 -88 -20 -43 -37 -1 85 -116 80 13 -115 -18 -56
0000f0 14 b8 44 1c 07 44 15 8b 2e 27 c9 f7 9b d9 3b be
       20 -72 68 28 7 68 21 -117 46 39 -55 -9 -101 -39 59 -66

Nvidia_Model/dense/MatMul/ReadVariableOp/transpose i1 [100, 1152] scale=0.0018672539 zero_point=0
000000 f0 0c 0e 1d 09 dd dc 04 fb fa 20 fe fe e1 dc 14
       -0.029876063 0.022407047 0.026141554 0.054150365 0.016805286 -0.065353885 -0.06722114 0.0074690157 -0.009336269 -0.011203524 0.059752125 -0.0037345078 -0.0037345078 -0.057884872 -0.06722114 0.037345078
000010 d8 f7 ed f5 e2 e5 f1 0b 16 18 10 17 14 f9 e4 db
       -0.074690156 -0.016805286 -0.035477825 -0.020539792 -0.05601762 -0.050415855 -0.02800881 0.020539792 0.041079585 0.044814095 0.029876063 0.04294684 0.037345078 -0.013070777 -0.05228311 -0.06908839
000020 d7 d9 1a 23 df 01 06 08 20 dd ed f7 1a 01 12 0e
       -0.07655741 -0.072822906 0.0485486 0.065353885 -0.06161938 0.0018672539 0.011203524 0.014938031 0.059752125 -0.065353885 -0.035477825 -0.016805286 0.0485486 0.0018672539 0.03361057 0.026141554
000030 e4 f3 20 0d 14 fc fa 18 f1 10 11 15 22 21 de f9
       -0.05228311 -0.0242743 0.059752125 0.0242743 0.037345078 -0.0074690157 -0.011203524 0.044814095 -0.02800881 0.029876063 0.031743318 0.03921233 0.063486636 0.06161938 -0.063486636 -0.013070777
000040 e8 1f 1f eb e4 ed 1c ea 1a 20 03 03 22 e3 05 0f
       -0.044814095 0.057884872 0.057884872 -0.03921233 -0.05228311 -0.035477825 0.05228311 -0.041079585 0.0485486 0.059752125 0.005601762 0.005601762 0.063486636 -0.054150365 0.009336269 0.02800881
000050 22 21 15 e9 fc f1 1b e8 e3 20 1e 0a da 0c 17 1d
       0.063486636 0.06161938 0.03921233 -0.04294684 -0.0074690157 -0.02800881 0.050415855 -0.044814095 -0.054150365 0.059752125 0.05601762 0.018672539 -0.07095565 0.022407047 0.04294684 0.054150365
000060 0f e0 f2 fe 18 1e e8 13 e5 fa f8 df ec fc f3 e6
       0.02800881 -0.059752125 -0.026141554 -0.0037345078 0.044814095 0.05601762 -0.044814095 0.035477825 -0.050415855 -0.011203524 -0.014938031 -0.06161938 -0.037345078 -0.0074690157 -0.0242743 -0.0485486
000070 fe e4 0d f7 0a 1e 24 1b 0b df d8 ed 0a e6 f6 1c
       -0.0037345078 -0.05228311 0.0242743 -0.016805286 0.018672539 0.05601762 0.06722114 0.050415855 0.020539792 -0.06161938 -0.074690156 -0.035477825 0.018672539 -0.0485486 -0.018672539 0.05228311
000080 fb d9 0b 07 0b e9 f0 e5 f1 dc da da fb f6 f5 1c
       -0.009336269 -0.072822906 0.020539792 0.013070777 0.020539792 -0.04294684 -0.029876063 -0.050415855 -0.02800881 -0.06722114 -0.07095565 -0.07095565 -0.009336269 -0.018672539 -0.020539792 0.05228311
000090 f2 e6 e1 0b 05 17 07 f5 f9 01 01 df 07 24 fe 13
       -0.026141554 -0.0485486 -0.057884872 0.020539792 0.009336269 0.04294684 0.013070777 -0.020539792 -0.013070777 0.0018672539 0.0018672539 -0.06161938 0.013070777 0.06722114 -0.0037345078 0.035477825
0000a0 1a 21 ee 01 eb 09 fa ec 0a 14 01 0b 16 f1 fc eb
       0.0485486 0.06161938 -0.03361057 0.0018672539 -0.03921233 0.016805286 -0.011203524 -0.037345078 0.018672539 0.037345078 0.0018672539 0.020539792 0.041079585 -0.02800881 -0.0074690157 -0.03921233
0000b0 e6 e6 21 1d 11 08 e6 e2 0b 0c f0 d8 e2 0b dc fc
       -0.0485486 -0.0485486 0.06161938 0.054150365 0.031743318 0.014938031 -0.0485486 -0.05601762 0.020539792 0.022407047 -0.029876063 -0.074690156 -0.05601762 0.020539792 -0.06722114 -0.0074690157
0000c0 21 f9 1a 0d 0c 01 f3 fc 03 ec 07 f4 f4 1f 09 02
       0.06161938 -0.013070777 0.0485486 0.0242743 0.022407047 0.0018672539 -0.0242743 -0.0074690157 0.005601762 -0.037345078 0.013070777 -0.022407047 -0.022407047 0.057884872 0.016805286 0.0037345078
0000d0 16 03 eb e7 db e6 dd 01 ee e2 fd 02 1a 22 ea 02
       0.041079585 0.005601762 -0.03921233 -0.04668135 -0.06908839 -0.0485486 -0.065353885 0.0018672539 -0.03361057 -0.05601762 -0.005601762 0.0037345078 0.0485486 0.063486636 -0.041079585 0.0037345078
0000e0 01 05 ec 22 fc dc ed 22 ea 18 11 d9 f0 16 0e de
       0.0018672539 0.009336269 -0.037345078 0.063486636 -0.0074690157 -0.06722114 -0.035477825 0.063486636 -0.041079585 0.044814095 0.031743318 -0.072822906 -0.029876063 0.041079585 0.026141554 -0.063486636
0000f0 09 f1 e0 df 1e ef 19 01 f8 0e 10 ec 0c 06 ed da
       0.016805286 -0.02800881 -0.059752125 -0.06161938 0.05601762 -0.031743318 0.04668135 0.0018672539 -0.014938031 0.026141554 0.029876063 -0.037345078 0.022407047 0.011203524 -0.035477825 -0.07095565

Nvidia_Model/dense_1/MatMul/ReadVariableOp/transpose i1 [50, 100] scale=0.0022627795 zero_point=0
000000 1f 1d c9 55 c3 cd 2a 13 e8 0a a0 db 50 b4 c1 f1
       0.070146166 0.06562061 -0.124452874 0.19233626 -0.13802955 -0.11540175 0.09503674 0.04299281 -0.05430671 0.022627795 -0.21722683 -0.083722845 0.18102236 -0.17197125 -0.1425551 -0.033941694
000010 ee 56 ec 25 2f 1e f1 dc c8 f6 3e 43 ae 47 a9 17
       -0.04073003 0.19459903 -0.04525559 0.083722845 0.10635064 0.06788339 -0.033941694 -0.08146006 -0.12671566 -0.022627795 0.14029233 0.15160623 -0.18554792 0.16065735 -0.19686182 0.05204393
000020 d1 08 38 2c 21 c5 3a 08 cd 2c 04 e8 c7 54 1f af
       -0.10635064 0.018102236 0.12671566 0.0995623 0.07467172 -0.13350399 0.13124122 0.018102236 -0.11540175 0.0995623 0.009051118 -0.05430671 -0.12897843 0.19007348 0.070146166 -0.18328515
000030 08 4a 4b ac c2 1e 07 29 cf 2a 4d b2 a7 05 3b 32
       0.018102236 0.16744569 0.16970846 -0.19007348 -0.14029233 0.06788339 0.015839458 0.09277396 -0.110876195 0.09503674 0.17423402 -0.1764968 -0.20138738 0.011313898 0.13350399 0.11313897
000040 09 a9 d6 eb 31 ce d3 c8 1b f8 52 3a c5 c9 04 2b
       0.020365015 -0.19686182 -0.09503674 -0.04751837 0.110876195 -0.11313897 -0.10182508 -0.12671566 0.061095048 -0.018102236 0.18554792 0.13124122 -0.13350399 -0.124452874 0.009051118 0.097299516
000050 17 be ba da f2 f0 4f fd da 27 17 fa 45 de bc 3a
       0.05204393 -0.14934345 -0.15839456 -0.08598562 -0.031678915 -0.036204472 0.17875957 -0.0067883385 -0.08598562 0.0882484 0.05204393 -0.013576677 0.15613179 -0.0769345 -0.153869 0.13124122
000060 c1 19 1a 46 bf 39 0d 24 30 f1 28 b8 04 e9 b6 d5
       -0.1425551 0.056569487 0.058832265 0.15839456 -0.14708067 0.12897843 0.029416133 0.08146006 0.10861342 -0.033941694 0.09051118 -0.16292012 0.009051118 -0.05204393 -0.16744569 -0.097299516
000070 27 d3 59 0d 40 c1 d1 b5 26 dd e8 b6 3e 4c f0 cd
       0.0882484 -0.10182508 0.20138738 0.029416133 0.14481789 -0.1425551 -0.10635064 -0.16970846 0.08598562 -0.07919728 -0.05430671 -0.16744569 0.14029233 0.17197125 -0.036204472 -0.11540175
000080 f6 50 bd d1 b6 4f c4 e0 f2 cb f6 f1 36 1f 19 b1
       -0.022627795 0.18102236 -0.15160623 -0.10635064 -0.16744569 0.17875957 -0.13576677 -0.072408944 -0.031678915 -0.11992732 -0.022627795 -0.033941694 0.122190095 0.070146166 0.056569487 -0.17875957
000090 1c 15 33 57 ca fc c1 3c b9 e6 cb b0 e6 db 19 46
       0.06335783 0.04751837 0.11540175 0.19686182 -0.122190095 -0.009051118 -0.1425551 0.13576677 -0.16065735 -0.058832265 -0.11992732 -0.18102236 -0.058832265 -0.083722845 0.056569487 0.15839456
0000a0 ee 40 36 16 b1 03 f2 dc e6 fa d7 d6 f7 45 19 d5
       -0.04073003 0.14481789 0.122190095 0.04978115 -0.17875957 0.0067883385 -0.031678915 -0.08146006 -0.058832265 -0.013576677 -0.09277396 -0.09503674 -0.020365015 0.15613179 0.056569487 -0.097299516
0000b0 35 43 07 34 f0 bb 22 3f 37 25 01 c1 c6 fd 07 44
       0.11992732 0.15160623 0.015839458 0.11766453 -0.036204472 -0.15613179 0.0769345 0.1425551 0.124452874 0.083722845 0.0022627795 -0.1425551 -0.13124122 -0.0067883385 0.015839458 0.153869
0000c0 b7 4f c6 2c af 3c 2d b7 f9 f1 27 da aa 3a fb ca
       -0.1651829 0.17875957 -0.13124122 0.0995623 -0.18328515 0.13576677 0.10182508 -0.1651829 -0.015839458 -0.033941694 0.0882484 -0.08598562 -0.19459903 0.13124122 -0.011313898 -0.122190095
0000d0 42 a9 ea fb 23 c2 1b 06 47 a7 3b 4f 48 af cc bf
       0.14934345 -0.19686182 -0.04978115 -0.011313898 0.07919728 -0.14029233 0.061095048 0.013576677 0.16065735 -0.20138738 0.13350399 0.17875957 0.16292012 -0.18328515 -0.11766453 -0.14708067
0000e0 da ff b5 a5 d3 c4 ed c5 58 c2 4c de b0 c8 c1 3f
       -0.08598562 -0.0022627795 -0.16970846 -0.20591293 -0.10182508 -0.13576677 -0.04299281 -0.13350399 0.1991246 -0.14029233 0.17197125 -0.0769345 -0.18102236 -0.12671566 -0.1425551 0.1425551
0000f0 42 3d 16 27 d8 26 f0 2f cf c1 be cd db e4 f7 1b
       0.14934345 0.13802955 0.04978115 0.0882484 -0.09051118 0.08598562 -0.036204472 0.10635064 -0.110876195 -0.1425551 -0.14934345 -0.11540175 -0.083722845 -0.06335783 -0.020365015 0.061095048

Nvidia_Model/dense_2/MatMul/ReadVariableOp/transpose i1 [10, 50] scale=0.002881952 zero_point=0
000000 e4 d3 5e a8 c0 98 0c 36 97 da a0 40 19 d3 fa a1
       -0.08069466 -0.12968785 0.2709035 -0.25361177 -0.18444493 -0.29972303 0.034583427 0.15562542 -0.30260497 -0.10951418 -0.27666742 0.18444493 0.072048806 -0.12968785 -0.017291714 -0.27378544
000010 1b 95 5a 06 a1 0d 60 c1 d2 f8 e1 bf 11 33 3a 44
       0.07781271 -0.30836886 0.2593757 0.017291714 -0.27378544 0.03746538 0.27666742 -0.18156298 -0.13256979 -0.023055617 -0.089340515 -0.1873269 0.048993185 0.14697956 0.16715322 0.19597274
000020 dd 94 c1 4c 65 2d cb 3c a6 e7 b8 4b a6 aa 38 d0
       -0.10086832 -0.31125084 -0.18156298 0.21902835 0.29107717 0.12968785 -0.15274346 0.17291713 -0.2593757 -0.072048806 -0.20750055 0.21614641 -0.2593757 -0.24784788 0.16138932 -0.13833371
000030 50 54 ce 4f 3e f4 6f 27 a9 50 d3 2e 04 2d ca 69
       0.23055616 0.24208398 -0.14409761 0.22767422 0.17868103 -0.034583427 0.31989667 0.11239613 -0.25072983 0.23055616 -0.12968785 0.13256979 0.011527808 0.12968785 -0.15562542 0.30260497
000040 e9 22 36 12 ea c4 02 ec ba 67 2b 3d f9 68 e6 45
       -0.066284895 0.09798637 0.15562542 0.051875137 -0.06340294 -0.17291713 0.005763904 -0.05763904 -0.20173664 0.29684106 0.12392394 0.17579907 -0.020173665 0.29972303 -0.07493076 0.1988547
000050 1a 5f af 5a 59 a5 5e 12 b0 ba 1c 99 2f d8 cd 4c
       0.07493076 0.27378544 -0.23343812 0.2593757 0.25649375 -0.26225764 0.2709035 0.051875137 -0.23055616 -0.20173664 0.08069466 -0.29684106 0.13545175 -0.11527808 -0.14697956 0.21902835
000060 49 8e ab d3 bc 39 cd 5e 81 e1 a9 a3 fb b6 a7 3d
       0.2103825 -0.32854253 -0.24496593 -0.12968785 -0.19597274 0.16427127 -0.14697956 0.2709035 -0.36600792 -0.089340515 -0.25072983 -0.26802155 -0.01440976 -0.21326445 -0.25649375 0.17579907
000070 43 e3 18 3d d1 4b 2e de bd f7 c9 c8 57 a8 61 1c
       0.1930908 -0.08357661 0.069166854 0.17579907 -0.13545175 0.21614641 0.13256979 -0.09798637 -0.1930908 -0.025937568 -0.15850736 -0.16138932 0.25072983 -0.25361177 0.27954936 0.08069466
000080 22 51 29 1b 5a 09 9e 27 6c 2d a7 af 6c 17 84 46
       0.09798637 0.23343812 0.11816004 0.07781271 0.2593757 0.025937568 -0.2824313 0.11239613 0.31125084 0.12968785 -0.25649375 -0.23343812 0.31125084 0.066284895 -0.35736206 0.20173664
000090 a5 9f 3e 13 50 4b aa 23 49 51 3c f4 c4 ed b1 4b
       -0.26225764 -0.27954936 0.17868103 0.05475709 0.23055616 0.21614641 -0.24784788 0.10086832 0.2103825 0.23343812 0.17291713 -0.034583427 -0.17291713 -0.05475709 -0.22767422 0.21614641
0000a0 5a dc f7 3c fa e4 1e 3b eb 97 23 9c ed 0e 1b e1
       0.2593757 -0.10375027 -0.025937568 0.17291713 -0.017291714 -0.08069466 0.086458564 0.17003517 -0.060520995 -0.30260497 0.10086832 -0.28819522 -0.05475709 0.04034733 0.07781271 -0.089340515
0000b0 d0 41 aa 44 c0 f6 4e 98 12 b9 6c 6e cb e8 c6 af
       -0.13833371 0.1873269 -0.24784788 0.19597274 -0.18444493 -0.02881952 0.22479226 -0.29972303 0.051875137 -0.2046186 0.31125084 0.31701472 -0.15274346 -0.069166854 -0.16715322 -0.23343812
0000c0 f4 3f aa 2c 44 d0 b2 18 dd 2f c1 18 96 ea b8 0b
       -0.034583427 0.18156298 -0.24784788 0.12680589 0.19597274 -0.13833371 -0.22479226 0.069166854 -0.10086832 0.13545175 -0.18156298 0.069166854 -0.30548692 -0.06340294 -0.20750055 0.03170147
0000d0 cb fa 0e 29 c8 aa bc 49 df e9 3b 06 01 bd 50 db
       -0.15274346 -0.017291714 0.04034733 0.11816004 -0.16138932 -0.24784788 -0.19597274 0.2103825 -0.09510442 -0.066284895 0.17003517 0.017291714 0.002881952 -0.1930908 0.23055616 -0.106632225
0000e0 f2 0b 5e cb 9f 0b 68 99 3b 33 35 e1 c8 ae 65 59
       -0.04034733 0.03170147 0.2709035 -0.15274346 -0.27954936 0.03170147 0.29972303 -0.29684106 0.17003517 0.14697956 0.15274346 -0.089340515 -0.16138932 -0.23632008 0.29107717 0.25649375
0000f0 f6 4b 98 06 fc 8a 44 eb e0 a0 c1 f2 31 33 3c 32
       -0.02881952 0.21614641 -0.29972303 0.017291714 -0.011527808 -0.34007034 0.19597274 -0.060520995 -0.09222247 -0.27666742 -0.18156298 -0.04034733 0.14121565 0.14697956 0.17291713 0.14409761

Nvidia_Model/dense_3/MatMul/ReadVariableOp/transpose i1 [1, 10] scale=0.003214843 zero_point=0
000000 f4 7e b7 45 35 7f 17 3b de bd
       -0.038578115 0.40507025 -0.23468354 0.22182417 0.17038669 0.40828508 0.073941395 0.18967575 -0.10930467 -0.21539448
